{"format": "layers-model", "generatedBy": "keras v2.12.0", "convertedBy": "TensorFlow.js Converter v4.8.0", "modelTopology": {"keras_version": "2.12.0", "backend": "tensorflow", "model_config": {"class_name": "Sequential", "config": {"name": "sequential_8", "layers": [{"class_name": "InputLayer", "config": {"batch_input_shape": [null, 224, 224, 3], "dtype": "float32", "sparse": false, "ragged": false, "name": "MobilenetV3small_input"}}, {"class_name": "Functional", "config": {"name": "MobilenetV3small", "trainable": false, "layers": [{"class_name": "InputLayer", "config": {"batch_input_shape": [null, 224, 224, 3], "dtype": "float32", "sparse": false, "ragged": false, "name": "input_7"}, "name": "input_7", "inbound_nodes": []}, {"class_name": "Rescaling", "config": {"name": "rescaling_6", "trainable": false, "dtype": "float32", "scale": 0.00784313725490196, "offset": -1.0}, "name": "rescaling_6", "inbound_nodes": [[["input_7", 0, 0, {}]]]}, {"class_name": "Conv2D", "config": {"name": "Conv", "trainable": false, "dtype": "float32", "filters": 16, "kernel_size": [3, 3], "strides": [2, 2], "padding": "same", "data_format": "channels_last", "dilation_rate": [1, 1], "groups": 1, "activation": "linear", "use_bias": false, "kernel_initializer": {"class_name": "GlorotUniform", "config": {"seed": null}}, "bias_initializer": {"class_name": "Zeros", "config": {}}, "kernel_regularizer": null, "bias_regularizer": null, "activity_regularizer": null, "kernel_constraint": null, "bias_constraint": null}, "name": "Conv", "inbound_nodes": [[["rescaling_6", 0, 0, {}]]]}, {"class_name": "BatchNormalization", "config": {"name": "Conv/BatchNorm", "trainable": false, "dtype": "float32", "axis": [3], "momentum": 0.999, "epsilon": 0.001, "center": true, "scale": true, "beta_initializer": {"class_name": "Zeros", "config": {}}, "gamma_initializer": {"class_name": "Ones", "config": {}}, "moving_mean_initializer": {"class_name": "Zeros", "config": {}}, "moving_variance_initializer": {"class_name": "Ones", "config": {}}, "beta_regularizer": null, "gamma_regularizer": null, "beta_constraint": null, "gamma_constraint": null}, "name": "Conv/BatchNorm", "inbound_nodes": [[["Conv", 0, 0, {}]]]}, {"class_name": "TFOpLambda", "config": {"name": "tf.__operators__.add_162", "trainable": false, "dtype": "float32", "function": "__operators__.add"}, "name": "tf.__operators__.add_162", "inbound_nodes": [["Conv/BatchNorm", 0, 0, {"y": 3.0, "name": null}]]}, {"class_name": "ReLU", "config": {"name": "re_lu_192", "trainable": false, "dtype": "float32", "max_value": 6.0, "negative_slope": 0.0, "threshold": 0.0}, "name": "re_lu_192", "inbound_nodes": [[["tf.__operators__.add_162", 0, 0, {}]]]}, {"class_name": "TFOpLambda", "config": {"name": "tf.math.multiply_162", "trainable": false, "dtype": "float32", "function": "math.multiply"}, "name": "tf.math.multiply_162", "inbound_nodes": [["re_lu_192", 0, 0, {"y": 0.16666666666666666, "name": null}]]}, {"class_name": "Multiply", "config": {"name": "multiply_108", "trainable": false, "dtype": "float32"}, "name": "multiply_108", "inbound_nodes": [[["Conv/BatchNorm", 0, 0, {}], ["tf.math.multiply_162", 0, 0, {}]]]}, {"class_name": "ZeroPadding2D", "config": {"name": "expanded_conv/depthwise/pad", "trainable": false, "dtype": "float32", "padding": [[0, 1], [0, 1]], "data_format": "channels_last"}, "name": "expanded_conv/depthwise/pad", "inbound_nodes": [[["multiply_108", 0, 0, {}]]]}, {"class_name": "DepthwiseConv2D", "config": {"name": "expanded_conv/depthwise", "trainable": false, "dtype": "float32", "kernel_size": [3, 3], "strides": [2, 2], "padding": "valid", "data_format": "channels_last", "dilation_rate": [1, 1], "groups": 1, "activation": "linear", "use_bias": false, "bias_initializer": {"class_name": "Zeros", "config": {}}, "bias_regularizer": null, "activity_regularizer": null, "bias_constraint": null, "depth_multiplier": 1, "depthwise_initializer": {"class_name": "GlorotUniform", "config": {"seed": null}}, "depthwise_regularizer": null, "depthwise_constraint": null}, "name": "expanded_conv/depthwise", "inbound_nodes": [[["expanded_conv/depthwise/pad", 0, 0, {}]]]}, {"class_name": "BatchNormalization", "config": {"name": "expanded_conv/depthwise/BatchNorm", "trainable": false, "dtype": "float32", "axis": [3], "momentum": 0.999, "epsilon": 0.001, "center": true, "scale": true, "beta_initializer": {"class_name": "Zeros", "config": {}}, "gamma_initializer": {"class_name": "Ones", "config": {}}, "moving_mean_initializer": {"class_name": "Zeros", "config": {}}, "moving_variance_initializer": {"class_name": "Ones", "config": {}}, "beta_regularizer": null, "gamma_regularizer": null, "beta_constraint": null, "gamma_constraint": null}, "name": "expanded_conv/depthwise/BatchNorm", "inbound_nodes": [[["expanded_conv/depthwise", 0, 0, {}]]]}, {"class_name": "ReLU", "config": {"name": "re_lu_193", "trainable": false, "dtype": "float32", "max_value": null, "negative_slope": 0.0, "threshold": 0.0}, "name": "re_lu_193", "inbound_nodes": [[["expanded_conv/depthwise/BatchNorm", 0, 0, {}]]]}, {"class_name": "GlobalAveragePooling2D", "config": {"name": "expanded_conv/squeeze_excite/AvgPool", "trainable": false, "dtype": "float32", "data_format": "channels_last", "keepdims": true}, "name": "expanded_conv/squeeze_excite/AvgPool", "inbound_nodes": [[["re_lu_193", 0, 0, {}]]]}, {"class_name": "Conv2D", "config": {"name": "expanded_conv/squeeze_excite/Conv", "trainable": false, "dtype": "float32", "filters": 8, "kernel_size": [1, 1], "strides": [1, 1], "padding": "same", "data_format": "channels_last", "dilation_rate": [1, 1], "groups": 1, "activation": "linear", "use_bias": true, "kernel_initializer": {"class_name": "GlorotUniform", "config": {"seed": null}}, "bias_initializer": {"class_name": "Zeros", "config": {}}, "kernel_regularizer": null, "bias_regularizer": null, "activity_regularizer": null, "kernel_constraint": null, "bias_constraint": null}, "name": "expanded_conv/squeeze_excite/Conv", "inbound_nodes": [[["expanded_conv/squeeze_excite/AvgPool", 0, 0, {}]]]}, {"class_name": "ReLU", "config": {"name": "expanded_conv/squeeze_excite/Relu", "trainable": false, "dtype": "float32", "max_value": null, "negative_slope": 0.0, "threshold": 0.0}, "name": "expanded_conv/squeeze_excite/Relu", "inbound_nodes": [[["expanded_conv/squeeze_excite/Conv", 0, 0, {}]]]}, {"class_name": "Conv2D", "config": {"name": "expanded_conv/squeeze_excite/Conv_1", "trainable": false, "dtype": "float32", "filters": 16, "kernel_size": [1, 1], "strides": [1, 1], "padding": "same", "data_format": "channels_last", "dilation_rate": [1, 1], "groups": 1, "activation": "linear", "use_bias": true, "kernel_initializer": {"class_name": "GlorotUniform", "config": {"seed": null}}, "bias_initializer": {"class_name": "Zeros", "config": {}}, "kernel_regularizer": null, "bias_regularizer": null, "activity_regularizer": null, "kernel_constraint": null, "bias_constraint": null}, "name": "expanded_conv/squeeze_excite/Conv_1", "inbound_nodes": [[["expanded_conv/squeeze_excite/Relu", 0, 0, {}]]]}, {"class_name": "TFOpLambda", "config": {"name": "tf.__operators__.add_163", "trainable": false, "dtype": "float32", "function": "__operators__.add"}, "name": "tf.__operators__.add_163", "inbound_nodes": [["expanded_conv/squeeze_excite/Conv_1", 0, 0, {"y": 3.0, "name": null}]]}, {"class_name": "ReLU", "config": {"name": "re_lu_194", "trainable": false, "dtype": "float32", "max_value": 6.0, "negative_slope": 0.0, "threshold": 0.0}, "name": "re_lu_194", "inbound_nodes": [[["tf.__operators__.add_163", 0, 0, {}]]]}, {"class_name": "TFOpLambda", "config": {"name": "tf.math.multiply_163", "trainable": false, "dtype": "float32", "function": "math.multiply"}, "name": "tf.math.multiply_163", "inbound_nodes": [["re_lu_194", 0, 0, {"y": 0.16666666666666666, "name": null}]]}, {"class_name": "Multiply", "config": {"name": "expanded_conv/squeeze_excite/Mul", "trainable": false, "dtype": "float32"}, "name": "expanded_conv/squeeze_excite/Mul", "inbound_nodes": [[["re_lu_193", 0, 0, {}], ["tf.math.multiply_163", 0, 0, {}]]]}, {"class_name": "Conv2D", "config": {"name": "expanded_conv/project", "trainable": false, "dtype": "float32", "filters": 16, "kernel_size": [1, 1], "strides": [1, 1], "padding": "same", "data_format": "channels_last", "dilation_rate": [1, 1], "groups": 1, "activation": "linear", "use_bias": false, "kernel_initializer": {"class_name": "GlorotUniform", "config": {"seed": null}}, "bias_initializer": {"class_name": "Zeros", "config": {}}, "kernel_regularizer": null, "bias_regularizer": null, "activity_regularizer": null, "kernel_constraint": null, "bias_constraint": null}, "name": "expanded_conv/project", "inbound_nodes": [[["expanded_conv/squeeze_excite/Mul", 0, 0, {}]]]}, {"class_name": "BatchNormalization", "config": {"name": "expanded_conv/project/BatchNorm", "trainable": false, "dtype": "float32", "axis": [3], "momentum": 0.999, "epsilon": 0.001, "center": true, "scale": true, "beta_initializer": {"class_name": "Zeros", "config": {}}, "gamma_initializer": {"class_name": "Ones", "config": {}}, "moving_mean_initializer": {"class_name": "Zeros", "config": {}}, "moving_variance_initializer": {"class_name": "Ones", "config": {}}, "beta_regularizer": null, "gamma_regularizer": null, "beta_constraint": null, "gamma_constraint": null}, "name": "expanded_conv/project/BatchNorm", "inbound_nodes": [[["expanded_conv/project", 0, 0, {}]]]}, {"class_name": "Conv2D", "config": {"name": "expanded_conv_1/expand", "trainable": false, "dtype": "float32", "filters": 72, "kernel_size": [1, 1], "strides": [1, 1], "padding": "same", "data_format": "channels_last", "dilation_rate": [1, 1], "groups": 1, "activation": "linear", "use_bias": false, "kernel_initializer": {"class_name": "GlorotUniform", "config": {"seed": null}}, "bias_initializer": {"class_name": "Zeros", "config": {}}, "kernel_regularizer": null, "bias_regularizer": null, "activity_regularizer": null, "kernel_constraint": null, "bias_constraint": null}, "name": "expanded_conv_1/expand", "inbound_nodes": [[["expanded_conv/project/BatchNorm", 0, 0, {}]]]}, {"class_name": "BatchNormalization", "config": {"name": "expanded_conv_1/expand/BatchNorm", "trainable": false, "dtype": "float32", "axis": [3], "momentum": 0.999, "epsilon": 0.001, "center": true, "scale": true, "beta_initializer": {"class_name": "Zeros", "config": {}}, "gamma_initializer": {"class_name": "Ones", "config": {}}, "moving_mean_initializer": {"class_name": "Zeros", "config": {}}, "moving_variance_initializer": {"class_name": "Ones", "config": {}}, "beta_regularizer": null, "gamma_regularizer": null, "beta_constraint": null, "gamma_constraint": null}, "name": "expanded_conv_1/expand/BatchNorm", "inbound_nodes": [[["expanded_conv_1/expand", 0, 0, {}]]]}, {"class_name": "ReLU", "config": {"name": "re_lu_195", "trainable": false, "dtype": "float32", "max_value": null, "negative_slope": 0.0, "threshold": 0.0}, "name": "re_lu_195", "inbound_nodes": [[["expanded_conv_1/expand/BatchNorm", 0, 0, {}]]]}, {"class_name": "ZeroPadding2D", "config": {"name": "expanded_conv_1/depthwise/pad", "trainable": false, "dtype": "float32", "padding": [[0, 1], [0, 1]], "data_format": "channels_last"}, "name": "expanded_conv_1/depthwise/pad", "inbound_nodes": [[["re_lu_195", 0, 0, {}]]]}, {"class_name": "DepthwiseConv2D", "config": {"name": "expanded_conv_1/depthwise", "trainable": false, "dtype": "float32", "kernel_size": [3, 3], "strides": [2, 2], "padding": "valid", "data_format": "channels_last", "dilation_rate": [1, 1], "groups": 1, "activation": "linear", "use_bias": false, "bias_initializer": {"class_name": "Zeros", "config": {}}, "bias_regularizer": null, "activity_regularizer": null, "bias_constraint": null, "depth_multiplier": 1, "depthwise_initializer": {"class_name": "GlorotUniform", "config": {"seed": null}}, "depthwise_regularizer": null, "depthwise_constraint": null}, "name": "expanded_conv_1/depthwise", "inbound_nodes": [[["expanded_conv_1/depthwise/pad", 0, 0, {}]]]}, {"class_name": "BatchNormalization", "config": {"name": "expanded_conv_1/depthwise/BatchNorm", "trainable": false, "dtype": "float32", "axis": [3], "momentum": 0.999, "epsilon": 0.001, "center": true, "scale": true, "beta_initializer": {"class_name": "Zeros", "config": {}}, "gamma_initializer": {"class_name": "Ones", "config": {}}, "moving_mean_initializer": {"class_name": "Zeros", "config": {}}, "moving_variance_initializer": {"class_name": "Ones", "config": {}}, "beta_regularizer": null, "gamma_regularizer": null, "beta_constraint": null, "gamma_constraint": null}, "name": "expanded_conv_1/depthwise/BatchNorm", "inbound_nodes": [[["expanded_conv_1/depthwise", 0, 0, {}]]]}, {"class_name": "ReLU", "config": {"name": "re_lu_196", "trainable": false, "dtype": "float32", "max_value": null, "negative_slope": 0.0, "threshold": 0.0}, "name": "re_lu_196", "inbound_nodes": [[["expanded_conv_1/depthwise/BatchNorm", 0, 0, {}]]]}, {"class_name": "Conv2D", "config": {"name": "expanded_conv_1/project", "trainable": false, "dtype": "float32", "filters": 24, "kernel_size": [1, 1], "strides": [1, 1], "padding": "same", "data_format": "channels_last", "dilation_rate": [1, 1], "groups": 1, "activation": "linear", "use_bias": false, "kernel_initializer": {"class_name": "GlorotUniform", "config": {"seed": null}}, "bias_initializer": {"class_name": "Zeros", "config": {}}, "kernel_regularizer": null, "bias_regularizer": null, "activity_regularizer": null, "kernel_constraint": null, "bias_constraint": null}, "name": "expanded_conv_1/project", "inbound_nodes": [[["re_lu_196", 0, 0, {}]]]}, {"class_name": "BatchNormalization", "config": {"name": "expanded_conv_1/project/BatchNorm", "trainable": false, "dtype": "float32", "axis": [3], "momentum": 0.999, "epsilon": 0.001, "center": true, "scale": true, "beta_initializer": {"class_name": "Zeros", "config": {}}, "gamma_initializer": {"class_name": "Ones", "config": {}}, "moving_mean_initializer": {"class_name": "Zeros", "config": {}}, "moving_variance_initializer": {"class_name": "Ones", "config": {}}, "beta_regularizer": null, "gamma_regularizer": null, "beta_constraint": null, "gamma_constraint": null}, "name": "expanded_conv_1/project/BatchNorm", "inbound_nodes": [[["expanded_conv_1/project", 0, 0, {}]]]}, {"class_name": "Conv2D", "config": {"name": "expanded_conv_2/expand", "trainable": false, "dtype": "float32", "filters": 88, "kernel_size": [1, 1], "strides": [1, 1], "padding": "same", "data_format": "channels_last", "dilation_rate": [1, 1], "groups": 1, "activation": "linear", "use_bias": false, "kernel_initializer": {"class_name": "GlorotUniform", "config": {"seed": null}}, "bias_initializer": {"class_name": "Zeros", "config": {}}, "kernel_regularizer": null, "bias_regularizer": null, "activity_regularizer": null, "kernel_constraint": null, "bias_constraint": null}, "name": "expanded_conv_2/expand", "inbound_nodes": [[["expanded_conv_1/project/BatchNorm", 0, 0, {}]]]}, {"class_name": "BatchNormalization", "config": {"name": "expanded_conv_2/expand/BatchNorm", "trainable": false, "dtype": "float32", "axis": [3], "momentum": 0.999, "epsilon": 0.001, "center": true, "scale": true, "beta_initializer": {"class_name": "Zeros", "config": {}}, "gamma_initializer": {"class_name": "Ones", "config": {}}, "moving_mean_initializer": {"class_name": "Zeros", "config": {}}, "moving_variance_initializer": {"class_name": "Ones", "config": {}}, "beta_regularizer": null, "gamma_regularizer": null, "beta_constraint": null, "gamma_constraint": null}, "name": "expanded_conv_2/expand/BatchNorm", "inbound_nodes": [[["expanded_conv_2/expand", 0, 0, {}]]]}, {"class_name": "ReLU", "config": {"name": "re_lu_197", "trainable": false, "dtype": "float32", "max_value": null, "negative_slope": 0.0, "threshold": 0.0}, "name": "re_lu_197", "inbound_nodes": [[["expanded_conv_2/expand/BatchNorm", 0, 0, {}]]]}, {"class_name": "DepthwiseConv2D", "config": {"name": "expanded_conv_2/depthwise", "trainable": false, "dtype": "float32", "kernel_size": [3, 3], "strides": [1, 1], "padding": "same", "data_format": "channels_last", "dilation_rate": [1, 1], "groups": 1, "activation": "linear", "use_bias": false, "bias_initializer": {"class_name": "Zeros", "config": {}}, "bias_regularizer": null, "activity_regularizer": null, "bias_constraint": null, "depth_multiplier": 1, "depthwise_initializer": {"class_name": "GlorotUniform", "config": {"seed": null}}, "depthwise_regularizer": null, "depthwise_constraint": null}, "name": "expanded_conv_2/depthwise", "inbound_nodes": [[["re_lu_197", 0, 0, {}]]]}, {"class_name": "BatchNormalization", "config": {"name": "expanded_conv_2/depthwise/BatchNorm", "trainable": false, "dtype": "float32", "axis": [3], "momentum": 0.999, "epsilon": 0.001, "center": true, "scale": true, "beta_initializer": {"class_name": "Zeros", "config": {}}, "gamma_initializer": {"class_name": "Ones", "config": {}}, "moving_mean_initializer": {"class_name": "Zeros", "config": {}}, "moving_variance_initializer": {"class_name": "Ones", "config": {}}, "beta_regularizer": null, "gamma_regularizer": null, "beta_constraint": null, "gamma_constraint": null}, "name": "expanded_conv_2/depthwise/BatchNorm", "inbound_nodes": [[["expanded_conv_2/depthwise", 0, 0, {}]]]}, {"class_name": "ReLU", "config": {"name": "re_lu_198", "trainable": false, "dtype": "float32", "max_value": null, "negative_slope": 0.0, "threshold": 0.0}, "name": "re_lu_198", "inbound_nodes": [[["expanded_conv_2/depthwise/BatchNorm", 0, 0, {}]]]}, {"class_name": "Conv2D", "config": {"name": "expanded_conv_2/project", "trainable": false, "dtype": "float32", "filters": 24, "kernel_size": [1, 1], "strides": [1, 1], "padding": "same", "data_format": "channels_last", "dilation_rate": [1, 1], "groups": 1, "activation": "linear", "use_bias": false, "kernel_initializer": {"class_name": "GlorotUniform", "config": {"seed": null}}, "bias_initializer": {"class_name": "Zeros", "config": {}}, "kernel_regularizer": null, "bias_regularizer": null, "activity_regularizer": null, "kernel_constraint": null, "bias_constraint": null}, "name": "expanded_conv_2/project", "inbound_nodes": [[["re_lu_198", 0, 0, {}]]]}, {"class_name": "BatchNormalization", "config": {"name": "expanded_conv_2/project/BatchNorm", "trainable": false, "dtype": "float32", "axis": [3], "momentum": 0.999, "epsilon": 0.001, "center": true, "scale": true, "beta_initializer": {"class_name": "Zeros", "config": {}}, "gamma_initializer": {"class_name": "Ones", "config": {}}, "moving_mean_initializer": {"class_name": "Zeros", "config": {}}, "moving_variance_initializer": {"class_name": "Ones", "config": {}}, "beta_regularizer": null, "gamma_regularizer": null, "beta_constraint": null, "gamma_constraint": null}, "name": "expanded_conv_2/project/BatchNorm", "inbound_nodes": [[["expanded_conv_2/project", 0, 0, {}]]]}, {"class_name": "Add", "config": {"name": "expanded_conv_2/Add", "trainable": false, "dtype": "float32"}, "name": "expanded_conv_2/Add", "inbound_nodes": [[["expanded_conv_1/project/BatchNorm", 0, 0, {}], ["expanded_conv_2/project/BatchNorm", 0, 0, {}]]]}, {"class_name": "Conv2D", "config": {"name": "expanded_conv_3/expand", "trainable": false, "dtype": "float32", "filters": 96, "kernel_size": [1, 1], "strides": [1, 1], "padding": "same", "data_format": "channels_last", "dilation_rate": [1, 1], "groups": 1, "activation": "linear", "use_bias": false, "kernel_initializer": {"class_name": "GlorotUniform", "config": {"seed": null}}, "bias_initializer": {"class_name": "Zeros", "config": {}}, "kernel_regularizer": null, "bias_regularizer": null, "activity_regularizer": null, "kernel_constraint": null, "bias_constraint": null}, "name": "expanded_conv_3/expand", "inbound_nodes": [[["expanded_conv_2/Add", 0, 0, {}]]]}, {"class_name": "BatchNormalization", "config": {"name": "expanded_conv_3/expand/BatchNorm", "trainable": false, "dtype": "float32", "axis": [3], "momentum": 0.999, "epsilon": 0.001, "center": true, "scale": true, "beta_initializer": {"class_name": "Zeros", "config": {}}, "gamma_initializer": {"class_name": "Ones", "config": {}}, "moving_mean_initializer": {"class_name": "Zeros", "config": {}}, "moving_variance_initializer": {"class_name": "Ones", "config": {}}, "beta_regularizer": null, "gamma_regularizer": null, "beta_constraint": null, "gamma_constraint": null}, "name": "expanded_conv_3/expand/BatchNorm", "inbound_nodes": [[["expanded_conv_3/expand", 0, 0, {}]]]}, {"class_name": "TFOpLambda", "config": {"name": "tf.__operators__.add_164", "trainable": false, "dtype": "float32", "function": "__operators__.add"}, "name": "tf.__operators__.add_164", "inbound_nodes": [["expanded_conv_3/expand/BatchNorm", 0, 0, {"y": 3.0, "name": null}]]}, {"class_name": "ReLU", "config": {"name": "re_lu_199", "trainable": false, "dtype": "float32", "max_value": 6.0, "negative_slope": 0.0, "threshold": 0.0}, "name": "re_lu_199", "inbound_nodes": [[["tf.__operators__.add_164", 0, 0, {}]]]}, {"class_name": "TFOpLambda", "config": {"name": "tf.math.multiply_164", "trainable": false, "dtype": "float32", "function": "math.multiply"}, "name": "tf.math.multiply_164", "inbound_nodes": [["re_lu_199", 0, 0, {"y": 0.16666666666666666, "name": null}]]}, {"class_name": "Multiply", "config": {"name": "multiply_109", "trainable": false, "dtype": "float32"}, "name": "multiply_109", "inbound_nodes": [[["expanded_conv_3/expand/BatchNorm", 0, 0, {}], ["tf.math.multiply_164", 0, 0, {}]]]}, {"class_name": "ZeroPadding2D", "config": {"name": "expanded_conv_3/depthwise/pad", "trainable": false, "dtype": "float32", "padding": [[1, 2], [1, 2]], "data_format": "channels_last"}, "name": "expanded_conv_3/depthwise/pad", "inbound_nodes": [[["multiply_109", 0, 0, {}]]]}, {"class_name": "DepthwiseConv2D", "config": {"name": "expanded_conv_3/depthwise", "trainable": false, "dtype": "float32", "kernel_size": [5, 5], "strides": [2, 2], "padding": "valid", "data_format": "channels_last", "dilation_rate": [1, 1], "groups": 1, "activation": "linear", "use_bias": false, "bias_initializer": {"class_name": "Zeros", "config": {}}, "bias_regularizer": null, "activity_regularizer": null, "bias_constraint": null, "depth_multiplier": 1, "depthwise_initializer": {"class_name": "GlorotUniform", "config": {"seed": null}}, "depthwise_regularizer": null, "depthwise_constraint": null}, "name": "expanded_conv_3/depthwise", "inbound_nodes": [[["expanded_conv_3/depthwise/pad", 0, 0, {}]]]}, {"class_name": "BatchNormalization", "config": {"name": "expanded_conv_3/depthwise/BatchNorm", "trainable": false, "dtype": "float32", "axis": [3], "momentum": 0.999, "epsilon": 0.001, "center": true, "scale": true, "beta_initializer": {"class_name": "Zeros", "config": {}}, "gamma_initializer": {"class_name": "Ones", "config": {}}, "moving_mean_initializer": {"class_name": "Zeros", "config": {}}, "moving_variance_initializer": {"class_name": "Ones", "config": {}}, "beta_regularizer": null, "gamma_regularizer": null, "beta_constraint": null, "gamma_constraint": null}, "name": "expanded_conv_3/depthwise/BatchNorm", "inbound_nodes": [[["expanded_conv_3/depthwise", 0, 0, {}]]]}, {"class_name": "TFOpLambda", "config": {"name": "tf.__operators__.add_165", "trainable": false, "dtype": "float32", "function": "__operators__.add"}, "name": "tf.__operators__.add_165", "inbound_nodes": [["expanded_conv_3/depthwise/BatchNorm", 0, 0, {"y": 3.0, "name": null}]]}, {"class_name": "ReLU", "config": {"name": "re_lu_200", "trainable": false, "dtype": "float32", "max_value": 6.0, "negative_slope": 0.0, "threshold": 0.0}, "name": "re_lu_200", "inbound_nodes": [[["tf.__operators__.add_165", 0, 0, {}]]]}, {"class_name": "TFOpLambda", "config": {"name": "tf.math.multiply_165", "trainable": false, "dtype": "float32", "function": "math.multiply"}, "name": "tf.math.multiply_165", "inbound_nodes": [["re_lu_200", 0, 0, {"y": 0.16666666666666666, "name": null}]]}, {"class_name": "Multiply", "config": {"name": "multiply_110", "trainable": false, "dtype": "float32"}, "name": "multiply_110", "inbound_nodes": [[["expanded_conv_3/depthwise/BatchNorm", 0, 0, {}], ["tf.math.multiply_165", 0, 0, {}]]]}, {"class_name": "GlobalAveragePooling2D", "config": {"name": "expanded_conv_3/squeeze_excite/AvgPool", "trainable": false, "dtype": "float32", "data_format": "channels_last", "keepdims": true}, "name": "expanded_conv_3/squeeze_excite/AvgPool", "inbound_nodes": [[["multiply_110", 0, 0, {}]]]}, {"class_name": "Conv2D", "config": {"name": "expanded_conv_3/squeeze_excite/Conv", "trainable": false, "dtype": "float32", "filters": 24, "kernel_size": [1, 1], "strides": [1, 1], "padding": "same", "data_format": "channels_last", "dilation_rate": [1, 1], "groups": 1, "activation": "linear", "use_bias": true, "kernel_initializer": {"class_name": "GlorotUniform", "config": {"seed": null}}, "bias_initializer": {"class_name": "Zeros", "config": {}}, "kernel_regularizer": null, "bias_regularizer": null, "activity_regularizer": null, "kernel_constraint": null, "bias_constraint": null}, "name": "expanded_conv_3/squeeze_excite/Conv", "inbound_nodes": [[["expanded_conv_3/squeeze_excite/AvgPool", 0, 0, {}]]]}, {"class_name": "ReLU", "config": {"name": "expanded_conv_3/squeeze_excite/Relu", "trainable": false, "dtype": "float32", "max_value": null, "negative_slope": 0.0, "threshold": 0.0}, "name": "expanded_conv_3/squeeze_excite/Relu", "inbound_nodes": [[["expanded_conv_3/squeeze_excite/Conv", 0, 0, {}]]]}, {"class_name": "Conv2D", "config": {"name": "expanded_conv_3/squeeze_excite/Conv_1", "trainable": false, "dtype": "float32", "filters": 96, "kernel_size": [1, 1], "strides": [1, 1], "padding": "same", "data_format": "channels_last", "dilation_rate": [1, 1], "groups": 1, "activation": "linear", "use_bias": true, "kernel_initializer": {"class_name": "GlorotUniform", "config": {"seed": null}}, "bias_initializer": {"class_name": "Zeros", "config": {}}, "kernel_regularizer": null, "bias_regularizer": null, "activity_regularizer": null, "kernel_constraint": null, "bias_constraint": null}, "name": "expanded_conv_3/squeeze_excite/Conv_1", "inbound_nodes": [[["expanded_conv_3/squeeze_excite/Relu", 0, 0, {}]]]}, {"class_name": "TFOpLambda", "config": {"name": "tf.__operators__.add_166", "trainable": false, "dtype": "float32", "function": "__operators__.add"}, "name": "tf.__operators__.add_166", "inbound_nodes": [["expanded_conv_3/squeeze_excite/Conv_1", 0, 0, {"y": 3.0, "name": null}]]}, {"class_name": "ReLU", "config": {"name": "re_lu_201", "trainable": false, "dtype": "float32", "max_value": 6.0, "negative_slope": 0.0, "threshold": 0.0}, "name": "re_lu_201", "inbound_nodes": [[["tf.__operators__.add_166", 0, 0, {}]]]}, {"class_name": "TFOpLambda", "config": {"name": "tf.math.multiply_166", "trainable": false, "dtype": "float32", "function": "math.multiply"}, "name": "tf.math.multiply_166", "inbound_nodes": [["re_lu_201", 0, 0, {"y": 0.16666666666666666, "name": null}]]}, {"class_name": "Multiply", "config": {"name": "expanded_conv_3/squeeze_excite/Mul", "trainable": false, "dtype": "float32"}, "name": "expanded_conv_3/squeeze_excite/Mul", "inbound_nodes": [[["multiply_110", 0, 0, {}], ["tf.math.multiply_166", 0, 0, {}]]]}, {"class_name": "Conv2D", "config": {"name": "expanded_conv_3/project", "trainable": false, "dtype": "float32", "filters": 40, "kernel_size": [1, 1], "strides": [1, 1], "padding": "same", "data_format": "channels_last", "dilation_rate": [1, 1], "groups": 1, "activation": "linear", "use_bias": false, "kernel_initializer": {"class_name": "GlorotUniform", "config": {"seed": null}}, "bias_initializer": {"class_name": "Zeros", "config": {}}, "kernel_regularizer": null, "bias_regularizer": null, "activity_regularizer": null, "kernel_constraint": null, "bias_constraint": null}, "name": "expanded_conv_3/project", "inbound_nodes": [[["expanded_conv_3/squeeze_excite/Mul", 0, 0, {}]]]}, {"class_name": "BatchNormalization", "config": {"name": "expanded_conv_3/project/BatchNorm", "trainable": false, "dtype": "float32", "axis": [3], "momentum": 0.999, "epsilon": 0.001, "center": true, "scale": true, "beta_initializer": {"class_name": "Zeros", "config": {}}, "gamma_initializer": {"class_name": "Ones", "config": {}}, "moving_mean_initializer": {"class_name": "Zeros", "config": {}}, "moving_variance_initializer": {"class_name": "Ones", "config": {}}, "beta_regularizer": null, "gamma_regularizer": null, "beta_constraint": null, "gamma_constraint": null}, "name": "expanded_conv_3/project/BatchNorm", "inbound_nodes": [[["expanded_conv_3/project", 0, 0, {}]]]}, {"class_name": "Conv2D", "config": {"name": "expanded_conv_4/expand", "trainable": false, "dtype": "float32", "filters": 240, "kernel_size": [1, 1], "strides": [1, 1], "padding": "same", "data_format": "channels_last", "dilation_rate": [1, 1], "groups": 1, "activation": "linear", "use_bias": false, "kernel_initializer": {"class_name": "GlorotUniform", "config": {"seed": null}}, "bias_initializer": {"class_name": "Zeros", "config": {}}, "kernel_regularizer": null, "bias_regularizer": null, "activity_regularizer": null, "kernel_constraint": null, "bias_constraint": null}, "name": "expanded_conv_4/expand", "inbound_nodes": [[["expanded_conv_3/project/BatchNorm", 0, 0, {}]]]}, {"class_name": "BatchNormalization", "config": {"name": "expanded_conv_4/expand/BatchNorm", "trainable": false, "dtype": "float32", "axis": [3], "momentum": 0.999, "epsilon": 0.001, "center": true, "scale": true, "beta_initializer": {"class_name": "Zeros", "config": {}}, "gamma_initializer": {"class_name": "Ones", "config": {}}, "moving_mean_initializer": {"class_name": "Zeros", "config": {}}, "moving_variance_initializer": {"class_name": "Ones", "config": {}}, "beta_regularizer": null, "gamma_regularizer": null, "beta_constraint": null, "gamma_constraint": null}, "name": "expanded_conv_4/expand/BatchNorm", "inbound_nodes": [[["expanded_conv_4/expand", 0, 0, {}]]]}, {"class_name": "TFOpLambda", "config": {"name": "tf.__operators__.add_167", "trainable": false, "dtype": "float32", "function": "__operators__.add"}, "name": "tf.__operators__.add_167", "inbound_nodes": [["expanded_conv_4/expand/BatchNorm", 0, 0, {"y": 3.0, "name": null}]]}, {"class_name": "ReLU", "config": {"name": "re_lu_202", "trainable": false, "dtype": "float32", "max_value": 6.0, "negative_slope": 0.0, "threshold": 0.0}, "name": "re_lu_202", "inbound_nodes": [[["tf.__operators__.add_167", 0, 0, {}]]]}, {"class_name": "TFOpLambda", "config": {"name": "tf.math.multiply_167", "trainable": false, "dtype": "float32", "function": "math.multiply"}, "name": "tf.math.multiply_167", "inbound_nodes": [["re_lu_202", 0, 0, {"y": 0.16666666666666666, "name": null}]]}, {"class_name": "Multiply", "config": {"name": "multiply_111", "trainable": false, "dtype": "float32"}, "name": "multiply_111", "inbound_nodes": [[["expanded_conv_4/expand/BatchNorm", 0, 0, {}], ["tf.math.multiply_167", 0, 0, {}]]]}, {"class_name": "DepthwiseConv2D", "config": {"name": "expanded_conv_4/depthwise", "trainable": false, "dtype": "float32", "kernel_size": [5, 5], "strides": [1, 1], "padding": "same", "data_format": "channels_last", "dilation_rate": [1, 1], "groups": 1, "activation": "linear", "use_bias": false, "bias_initializer": {"class_name": "Zeros", "config": {}}, "bias_regularizer": null, "activity_regularizer": null, "bias_constraint": null, "depth_multiplier": 1, "depthwise_initializer": {"class_name": "GlorotUniform", "config": {"seed": null}}, "depthwise_regularizer": null, "depthwise_constraint": null}, "name": "expanded_conv_4/depthwise", "inbound_nodes": [[["multiply_111", 0, 0, {}]]]}, {"class_name": "BatchNormalization", "config": {"name": "expanded_conv_4/depthwise/BatchNorm", "trainable": false, "dtype": "float32", "axis": [3], "momentum": 0.999, "epsilon": 0.001, "center": true, "scale": true, "beta_initializer": {"class_name": "Zeros", "config": {}}, "gamma_initializer": {"class_name": "Ones", "config": {}}, "moving_mean_initializer": {"class_name": "Zeros", "config": {}}, "moving_variance_initializer": {"class_name": "Ones", "config": {}}, "beta_regularizer": null, "gamma_regularizer": null, "beta_constraint": null, "gamma_constraint": null}, "name": "expanded_conv_4/depthwise/BatchNorm", "inbound_nodes": [[["expanded_conv_4/depthwise", 0, 0, {}]]]}, {"class_name": "TFOpLambda", "config": {"name": "tf.__operators__.add_168", "trainable": false, "dtype": "float32", "function": "__operators__.add"}, "name": "tf.__operators__.add_168", "inbound_nodes": [["expanded_conv_4/depthwise/BatchNorm", 0, 0, {"y": 3.0, "name": null}]]}, {"class_name": "ReLU", "config": {"name": "re_lu_203", "trainable": false, "dtype": "float32", "max_value": 6.0, "negative_slope": 0.0, "threshold": 0.0}, "name": "re_lu_203", "inbound_nodes": [[["tf.__operators__.add_168", 0, 0, {}]]]}, {"class_name": "TFOpLambda", "config": {"name": "tf.math.multiply_168", "trainable": false, "dtype": "float32", "function": "math.multiply"}, "name": "tf.math.multiply_168", "inbound_nodes": [["re_lu_203", 0, 0, {"y": 0.16666666666666666, "name": null}]]}, {"class_name": "Multiply", "config": {"name": "multiply_112", "trainable": false, "dtype": "float32"}, "name": "multiply_112", "inbound_nodes": [[["expanded_conv_4/depthwise/BatchNorm", 0, 0, {}], ["tf.math.multiply_168", 0, 0, {}]]]}, {"class_name": "GlobalAveragePooling2D", "config": {"name": "expanded_conv_4/squeeze_excite/AvgPool", "trainable": false, "dtype": "float32", "data_format": "channels_last", "keepdims": true}, "name": "expanded_conv_4/squeeze_excite/AvgPool", "inbound_nodes": [[["multiply_112", 0, 0, {}]]]}, {"class_name": "Conv2D", "config": {"name": "expanded_conv_4/squeeze_excite/Conv", "trainable": false, "dtype": "float32", "filters": 64, "kernel_size": [1, 1], "strides": [1, 1], "padding": "same", "data_format": "channels_last", "dilation_rate": [1, 1], "groups": 1, "activation": "linear", "use_bias": true, "kernel_initializer": {"class_name": "GlorotUniform", "config": {"seed": null}}, "bias_initializer": {"class_name": "Zeros", "config": {}}, "kernel_regularizer": null, "bias_regularizer": null, "activity_regularizer": null, "kernel_constraint": null, "bias_constraint": null}, "name": "expanded_conv_4/squeeze_excite/Conv", "inbound_nodes": [[["expanded_conv_4/squeeze_excite/AvgPool", 0, 0, {}]]]}, {"class_name": "ReLU", "config": {"name": "expanded_conv_4/squeeze_excite/Relu", "trainable": false, "dtype": "float32", "max_value": null, "negative_slope": 0.0, "threshold": 0.0}, "name": "expanded_conv_4/squeeze_excite/Relu", "inbound_nodes": [[["expanded_conv_4/squeeze_excite/Conv", 0, 0, {}]]]}, {"class_name": "Conv2D", "config": {"name": "expanded_conv_4/squeeze_excite/Conv_1", "trainable": false, "dtype": "float32", "filters": 240, "kernel_size": [1, 1], "strides": [1, 1], "padding": "same", "data_format": "channels_last", "dilation_rate": [1, 1], "groups": 1, "activation": "linear", "use_bias": true, "kernel_initializer": {"class_name": "GlorotUniform", "config": {"seed": null}}, "bias_initializer": {"class_name": "Zeros", "config": {}}, "kernel_regularizer": null, "bias_regularizer": null, "activity_regularizer": null, "kernel_constraint": null, "bias_constraint": null}, "name": "expanded_conv_4/squeeze_excite/Conv_1", "inbound_nodes": [[["expanded_conv_4/squeeze_excite/Relu", 0, 0, {}]]]}, {"class_name": "TFOpLambda", "config": {"name": "tf.__operators__.add_169", "trainable": false, "dtype": "float32", "function": "__operators__.add"}, "name": "tf.__operators__.add_169", "inbound_nodes": [["expanded_conv_4/squeeze_excite/Conv_1", 0, 0, {"y": 3.0, "name": null}]]}, {"class_name": "ReLU", "config": {"name": "re_lu_204", "trainable": false, "dtype": "float32", "max_value": 6.0, "negative_slope": 0.0, "threshold": 0.0}, "name": "re_lu_204", "inbound_nodes": [[["tf.__operators__.add_169", 0, 0, {}]]]}, {"class_name": "TFOpLambda", "config": {"name": "tf.math.multiply_169", "trainable": false, "dtype": "float32", "function": "math.multiply"}, "name": "tf.math.multiply_169", "inbound_nodes": [["re_lu_204", 0, 0, {"y": 0.16666666666666666, "name": null}]]}, {"class_name": "Multiply", "config": {"name": "expanded_conv_4/squeeze_excite/Mul", "trainable": false, "dtype": "float32"}, "name": "expanded_conv_4/squeeze_excite/Mul", "inbound_nodes": [[["multiply_112", 0, 0, {}], ["tf.math.multiply_169", 0, 0, {}]]]}, {"class_name": "Conv2D", "config": {"name": "expanded_conv_4/project", "trainable": false, "dtype": "float32", "filters": 40, "kernel_size": [1, 1], "strides": [1, 1], "padding": "same", "data_format": "channels_last", "dilation_rate": [1, 1], "groups": 1, "activation": "linear", "use_bias": false, "kernel_initializer": {"class_name": "GlorotUniform", "config": {"seed": null}}, "bias_initializer": {"class_name": "Zeros", "config": {}}, "kernel_regularizer": null, "bias_regularizer": null, "activity_regularizer": null, "kernel_constraint": null, "bias_constraint": null}, "name": "expanded_conv_4/project", "inbound_nodes": [[["expanded_conv_4/squeeze_excite/Mul", 0, 0, {}]]]}, {"class_name": "BatchNormalization", "config": {"name": "expanded_conv_4/project/BatchNorm", "trainable": false, "dtype": "float32", "axis": [3], "momentum": 0.999, "epsilon": 0.001, "center": true, "scale": true, "beta_initializer": {"class_name": "Zeros", "config": {}}, "gamma_initializer": {"class_name": "Ones", "config": {}}, "moving_mean_initializer": {"class_name": "Zeros", "config": {}}, "moving_variance_initializer": {"class_name": "Ones", "config": {}}, "beta_regularizer": null, "gamma_regularizer": null, "beta_constraint": null, "gamma_constraint": null}, "name": "expanded_conv_4/project/BatchNorm", "inbound_nodes": [[["expanded_conv_4/project", 0, 0, {}]]]}, {"class_name": "Add", "config": {"name": "expanded_conv_4/Add", "trainable": false, "dtype": "float32"}, "name": "expanded_conv_4/Add", "inbound_nodes": [[["expanded_conv_3/project/BatchNorm", 0, 0, {}], ["expanded_conv_4/project/BatchNorm", 0, 0, {}]]]}, {"class_name": "Conv2D", "config": {"name": "expanded_conv_5/expand", "trainable": false, "dtype": "float32", "filters": 240, "kernel_size": [1, 1], "strides": [1, 1], "padding": "same", "data_format": "channels_last", "dilation_rate": [1, 1], "groups": 1, "activation": "linear", "use_bias": false, "kernel_initializer": {"class_name": "GlorotUniform", "config": {"seed": null}}, "bias_initializer": {"class_name": "Zeros", "config": {}}, "kernel_regularizer": null, "bias_regularizer": null, "activity_regularizer": null, "kernel_constraint": null, "bias_constraint": null}, "name": "expanded_conv_5/expand", "inbound_nodes": [[["expanded_conv_4/Add", 0, 0, {}]]]}, {"class_name": "BatchNormalization", "config": {"name": "expanded_conv_5/expand/BatchNorm", "trainable": false, "dtype": "float32", "axis": [3], "momentum": 0.999, "epsilon": 0.001, "center": true, "scale": true, "beta_initializer": {"class_name": "Zeros", "config": {}}, "gamma_initializer": {"class_name": "Ones", "config": {}}, "moving_mean_initializer": {"class_name": "Zeros", "config": {}}, "moving_variance_initializer": {"class_name": "Ones", "config": {}}, "beta_regularizer": null, "gamma_regularizer": null, "beta_constraint": null, "gamma_constraint": null}, "name": "expanded_conv_5/expand/BatchNorm", "inbound_nodes": [[["expanded_conv_5/expand", 0, 0, {}]]]}, {"class_name": "TFOpLambda", "config": {"name": "tf.__operators__.add_170", "trainable": false, "dtype": "float32", "function": "__operators__.add"}, "name": "tf.__operators__.add_170", "inbound_nodes": [["expanded_conv_5/expand/BatchNorm", 0, 0, {"y": 3.0, "name": null}]]}, {"class_name": "ReLU", "config": {"name": "re_lu_205", "trainable": false, "dtype": "float32", "max_value": 6.0, "negative_slope": 0.0, "threshold": 0.0}, "name": "re_lu_205", "inbound_nodes": [[["tf.__operators__.add_170", 0, 0, {}]]]}, {"class_name": "TFOpLambda", "config": {"name": "tf.math.multiply_170", "trainable": false, "dtype": "float32", "function": "math.multiply"}, "name": "tf.math.multiply_170", "inbound_nodes": [["re_lu_205", 0, 0, {"y": 0.16666666666666666, "name": null}]]}, {"class_name": "Multiply", "config": {"name": "multiply_113", "trainable": false, "dtype": "float32"}, "name": "multiply_113", "inbound_nodes": [[["expanded_conv_5/expand/BatchNorm", 0, 0, {}], ["tf.math.multiply_170", 0, 0, {}]]]}, {"class_name": "DepthwiseConv2D", "config": {"name": "expanded_conv_5/depthwise", "trainable": false, "dtype": "float32", "kernel_size": [5, 5], "strides": [1, 1], "padding": "same", "data_format": "channels_last", "dilation_rate": [1, 1], "groups": 1, "activation": "linear", "use_bias": false, "bias_initializer": {"class_name": "Zeros", "config": {}}, "bias_regularizer": null, "activity_regularizer": null, "bias_constraint": null, "depth_multiplier": 1, "depthwise_initializer": {"class_name": "GlorotUniform", "config": {"seed": null}}, "depthwise_regularizer": null, "depthwise_constraint": null}, "name": "expanded_conv_5/depthwise", "inbound_nodes": [[["multiply_113", 0, 0, {}]]]}, {"class_name": "BatchNormalization", "config": {"name": "expanded_conv_5/depthwise/BatchNorm", "trainable": false, "dtype": "float32", "axis": [3], "momentum": 0.999, "epsilon": 0.001, "center": true, "scale": true, "beta_initializer": {"class_name": "Zeros", "config": {}}, "gamma_initializer": {"class_name": "Ones", "config": {}}, "moving_mean_initializer": {"class_name": "Zeros", "config": {}}, "moving_variance_initializer": {"class_name": "Ones", "config": {}}, "beta_regularizer": null, "gamma_regularizer": null, "beta_constraint": null, "gamma_constraint": null}, "name": "expanded_conv_5/depthwise/BatchNorm", "inbound_nodes": [[["expanded_conv_5/depthwise", 0, 0, {}]]]}, {"class_name": "TFOpLambda", "config": {"name": "tf.__operators__.add_171", "trainable": false, "dtype": "float32", "function": "__operators__.add"}, "name": "tf.__operators__.add_171", "inbound_nodes": [["expanded_conv_5/depthwise/BatchNorm", 0, 0, {"y": 3.0, "name": null}]]}, {"class_name": "ReLU", "config": {"name": "re_lu_206", "trainable": false, "dtype": "float32", "max_value": 6.0, "negative_slope": 0.0, "threshold": 0.0}, "name": "re_lu_206", "inbound_nodes": [[["tf.__operators__.add_171", 0, 0, {}]]]}, {"class_name": "TFOpLambda", "config": {"name": "tf.math.multiply_171", "trainable": false, "dtype": "float32", "function": "math.multiply"}, "name": "tf.math.multiply_171", "inbound_nodes": [["re_lu_206", 0, 0, {"y": 0.16666666666666666, "name": null}]]}, {"class_name": "Multiply", "config": {"name": "multiply_114", "trainable": false, "dtype": "float32"}, "name": "multiply_114", "inbound_nodes": [[["expanded_conv_5/depthwise/BatchNorm", 0, 0, {}], ["tf.math.multiply_171", 0, 0, {}]]]}, {"class_name": "GlobalAveragePooling2D", "config": {"name": "expanded_conv_5/squeeze_excite/AvgPool", "trainable": false, "dtype": "float32", "data_format": "channels_last", "keepdims": true}, "name": "expanded_conv_5/squeeze_excite/AvgPool", "inbound_nodes": [[["multiply_114", 0, 0, {}]]]}, {"class_name": "Conv2D", "config": {"name": "expanded_conv_5/squeeze_excite/Conv", "trainable": false, "dtype": "float32", "filters": 64, "kernel_size": [1, 1], "strides": [1, 1], "padding": "same", "data_format": "channels_last", "dilation_rate": [1, 1], "groups": 1, "activation": "linear", "use_bias": true, "kernel_initializer": {"class_name": "GlorotUniform", "config": {"seed": null}}, "bias_initializer": {"class_name": "Zeros", "config": {}}, "kernel_regularizer": null, "bias_regularizer": null, "activity_regularizer": null, "kernel_constraint": null, "bias_constraint": null}, "name": "expanded_conv_5/squeeze_excite/Conv", "inbound_nodes": [[["expanded_conv_5/squeeze_excite/AvgPool", 0, 0, {}]]]}, {"class_name": "ReLU", "config": {"name": "expanded_conv_5/squeeze_excite/Relu", "trainable": false, "dtype": "float32", "max_value": null, "negative_slope": 0.0, "threshold": 0.0}, "name": "expanded_conv_5/squeeze_excite/Relu", "inbound_nodes": [[["expanded_conv_5/squeeze_excite/Conv", 0, 0, {}]]]}, {"class_name": "Conv2D", "config": {"name": "expanded_conv_5/squeeze_excite/Conv_1", "trainable": false, "dtype": "float32", "filters": 240, "kernel_size": [1, 1], "strides": [1, 1], "padding": "same", "data_format": "channels_last", "dilation_rate": [1, 1], "groups": 1, "activation": "linear", "use_bias": true, "kernel_initializer": {"class_name": "GlorotUniform", "config": {"seed": null}}, "bias_initializer": {"class_name": "Zeros", "config": {}}, "kernel_regularizer": null, "bias_regularizer": null, "activity_regularizer": null, "kernel_constraint": null, "bias_constraint": null}, "name": "expanded_conv_5/squeeze_excite/Conv_1", "inbound_nodes": [[["expanded_conv_5/squeeze_excite/Relu", 0, 0, {}]]]}, {"class_name": "TFOpLambda", "config": {"name": "tf.__operators__.add_172", "trainable": false, "dtype": "float32", "function": "__operators__.add"}, "name": "tf.__operators__.add_172", "inbound_nodes": [["expanded_conv_5/squeeze_excite/Conv_1", 0, 0, {"y": 3.0, "name": null}]]}, {"class_name": "ReLU", "config": {"name": "re_lu_207", "trainable": false, "dtype": "float32", "max_value": 6.0, "negative_slope": 0.0, "threshold": 0.0}, "name": "re_lu_207", "inbound_nodes": [[["tf.__operators__.add_172", 0, 0, {}]]]}, {"class_name": "TFOpLambda", "config": {"name": "tf.math.multiply_172", "trainable": false, "dtype": "float32", "function": "math.multiply"}, "name": "tf.math.multiply_172", "inbound_nodes": [["re_lu_207", 0, 0, {"y": 0.16666666666666666, "name": null}]]}, {"class_name": "Multiply", "config": {"name": "expanded_conv_5/squeeze_excite/Mul", "trainable": false, "dtype": "float32"}, "name": "expanded_conv_5/squeeze_excite/Mul", "inbound_nodes": [[["multiply_114", 0, 0, {}], ["tf.math.multiply_172", 0, 0, {}]]]}, {"class_name": "Conv2D", "config": {"name": "expanded_conv_5/project", "trainable": false, "dtype": "float32", "filters": 40, "kernel_size": [1, 1], "strides": [1, 1], "padding": "same", "data_format": "channels_last", "dilation_rate": [1, 1], "groups": 1, "activation": "linear", "use_bias": false, "kernel_initializer": {"class_name": "GlorotUniform", "config": {"seed": null}}, "bias_initializer": {"class_name": "Zeros", "config": {}}, "kernel_regularizer": null, "bias_regularizer": null, "activity_regularizer": null, "kernel_constraint": null, "bias_constraint": null}, "name": "expanded_conv_5/project", "inbound_nodes": [[["expanded_conv_5/squeeze_excite/Mul", 0, 0, {}]]]}, {"class_name": "BatchNormalization", "config": {"name": "expanded_conv_5/project/BatchNorm", "trainable": false, "dtype": "float32", "axis": [3], "momentum": 0.999, "epsilon": 0.001, "center": true, "scale": true, "beta_initializer": {"class_name": "Zeros", "config": {}}, "gamma_initializer": {"class_name": "Ones", "config": {}}, "moving_mean_initializer": {"class_name": "Zeros", "config": {}}, "moving_variance_initializer": {"class_name": "Ones", "config": {}}, "beta_regularizer": null, "gamma_regularizer": null, "beta_constraint": null, "gamma_constraint": null}, "name": "expanded_conv_5/project/BatchNorm", "inbound_nodes": [[["expanded_conv_5/project", 0, 0, {}]]]}, {"class_name": "Add", "config": {"name": "expanded_conv_5/Add", "trainable": false, "dtype": "float32"}, "name": "expanded_conv_5/Add", "inbound_nodes": [[["expanded_conv_4/Add", 0, 0, {}], ["expanded_conv_5/project/BatchNorm", 0, 0, {}]]]}, {"class_name": "Conv2D", "config": {"name": "expanded_conv_6/expand", "trainable": false, "dtype": "float32", "filters": 120, "kernel_size": [1, 1], "strides": [1, 1], "padding": "same", "data_format": "channels_last", "dilation_rate": [1, 1], "groups": 1, "activation": "linear", "use_bias": false, "kernel_initializer": {"class_name": "GlorotUniform", "config": {"seed": null}}, "bias_initializer": {"class_name": "Zeros", "config": {}}, "kernel_regularizer": null, "bias_regularizer": null, "activity_regularizer": null, "kernel_constraint": null, "bias_constraint": null}, "name": "expanded_conv_6/expand", "inbound_nodes": [[["expanded_conv_5/Add", 0, 0, {}]]]}, {"class_name": "BatchNormalization", "config": {"name": "expanded_conv_6/expand/BatchNorm", "trainable": false, "dtype": "float32", "axis": [3], "momentum": 0.999, "epsilon": 0.001, "center": true, "scale": true, "beta_initializer": {"class_name": "Zeros", "config": {}}, "gamma_initializer": {"class_name": "Ones", "config": {}}, "moving_mean_initializer": {"class_name": "Zeros", "config": {}}, "moving_variance_initializer": {"class_name": "Ones", "config": {}}, "beta_regularizer": null, "gamma_regularizer": null, "beta_constraint": null, "gamma_constraint": null}, "name": "expanded_conv_6/expand/BatchNorm", "inbound_nodes": [[["expanded_conv_6/expand", 0, 0, {}]]]}, {"class_name": "TFOpLambda", "config": {"name": "tf.__operators__.add_173", "trainable": false, "dtype": "float32", "function": "__operators__.add"}, "name": "tf.__operators__.add_173", "inbound_nodes": [["expanded_conv_6/expand/BatchNorm", 0, 0, {"y": 3.0, "name": null}]]}, {"class_name": "ReLU", "config": {"name": "re_lu_208", "trainable": false, "dtype": "float32", "max_value": 6.0, "negative_slope": 0.0, "threshold": 0.0}, "name": "re_lu_208", "inbound_nodes": [[["tf.__operators__.add_173", 0, 0, {}]]]}, {"class_name": "TFOpLambda", "config": {"name": "tf.math.multiply_173", "trainable": false, "dtype": "float32", "function": "math.multiply"}, "name": "tf.math.multiply_173", "inbound_nodes": [["re_lu_208", 0, 0, {"y": 0.16666666666666666, "name": null}]]}, {"class_name": "Multiply", "config": {"name": "multiply_115", "trainable": false, "dtype": "float32"}, "name": "multiply_115", "inbound_nodes": [[["expanded_conv_6/expand/BatchNorm", 0, 0, {}], ["tf.math.multiply_173", 0, 0, {}]]]}, {"class_name": "DepthwiseConv2D", "config": {"name": "expanded_conv_6/depthwise", "trainable": false, "dtype": "float32", "kernel_size": [5, 5], "strides": [1, 1], "padding": "same", "data_format": "channels_last", "dilation_rate": [1, 1], "groups": 1, "activation": "linear", "use_bias": false, "bias_initializer": {"class_name": "Zeros", "config": {}}, "bias_regularizer": null, "activity_regularizer": null, "bias_constraint": null, "depth_multiplier": 1, "depthwise_initializer": {"class_name": "GlorotUniform", "config": {"seed": null}}, "depthwise_regularizer": null, "depthwise_constraint": null}, "name": "expanded_conv_6/depthwise", "inbound_nodes": [[["multiply_115", 0, 0, {}]]]}, {"class_name": "BatchNormalization", "config": {"name": "expanded_conv_6/depthwise/BatchNorm", "trainable": false, "dtype": "float32", "axis": [3], "momentum": 0.999, "epsilon": 0.001, "center": true, "scale": true, "beta_initializer": {"class_name": "Zeros", "config": {}}, "gamma_initializer": {"class_name": "Ones", "config": {}}, "moving_mean_initializer": {"class_name": "Zeros", "config": {}}, "moving_variance_initializer": {"class_name": "Ones", "config": {}}, "beta_regularizer": null, "gamma_regularizer": null, "beta_constraint": null, "gamma_constraint": null}, "name": "expanded_conv_6/depthwise/BatchNorm", "inbound_nodes": [[["expanded_conv_6/depthwise", 0, 0, {}]]]}, {"class_name": "TFOpLambda", "config": {"name": "tf.__operators__.add_174", "trainable": false, "dtype": "float32", "function": "__operators__.add"}, "name": "tf.__operators__.add_174", "inbound_nodes": [["expanded_conv_6/depthwise/BatchNorm", 0, 0, {"y": 3.0, "name": null}]]}, {"class_name": "ReLU", "config": {"name": "re_lu_209", "trainable": false, "dtype": "float32", "max_value": 6.0, "negative_slope": 0.0, "threshold": 0.0}, "name": "re_lu_209", "inbound_nodes": [[["tf.__operators__.add_174", 0, 0, {}]]]}, {"class_name": "TFOpLambda", "config": {"name": "tf.math.multiply_174", "trainable": false, "dtype": "float32", "function": "math.multiply"}, "name": "tf.math.multiply_174", "inbound_nodes": [["re_lu_209", 0, 0, {"y": 0.16666666666666666, "name": null}]]}, {"class_name": "Multiply", "config": {"name": "multiply_116", "trainable": false, "dtype": "float32"}, "name": "multiply_116", "inbound_nodes": [[["expanded_conv_6/depthwise/BatchNorm", 0, 0, {}], ["tf.math.multiply_174", 0, 0, {}]]]}, {"class_name": "GlobalAveragePooling2D", "config": {"name": "expanded_conv_6/squeeze_excite/AvgPool", "trainable": false, "dtype": "float32", "data_format": "channels_last", "keepdims": true}, "name": "expanded_conv_6/squeeze_excite/AvgPool", "inbound_nodes": [[["multiply_116", 0, 0, {}]]]}, {"class_name": "Conv2D", "config": {"name": "expanded_conv_6/squeeze_excite/Conv", "trainable": false, "dtype": "float32", "filters": 32, "kernel_size": [1, 1], "strides": [1, 1], "padding": "same", "data_format": "channels_last", "dilation_rate": [1, 1], "groups": 1, "activation": "linear", "use_bias": true, "kernel_initializer": {"class_name": "GlorotUniform", "config": {"seed": null}}, "bias_initializer": {"class_name": "Zeros", "config": {}}, "kernel_regularizer": null, "bias_regularizer": null, "activity_regularizer": null, "kernel_constraint": null, "bias_constraint": null}, "name": "expanded_conv_6/squeeze_excite/Conv", "inbound_nodes": [[["expanded_conv_6/squeeze_excite/AvgPool", 0, 0, {}]]]}, {"class_name": "ReLU", "config": {"name": "expanded_conv_6/squeeze_excite/Relu", "trainable": false, "dtype": "float32", "max_value": null, "negative_slope": 0.0, "threshold": 0.0}, "name": "expanded_conv_6/squeeze_excite/Relu", "inbound_nodes": [[["expanded_conv_6/squeeze_excite/Conv", 0, 0, {}]]]}, {"class_name": "Conv2D", "config": {"name": "expanded_conv_6/squeeze_excite/Conv_1", "trainable": false, "dtype": "float32", "filters": 120, "kernel_size": [1, 1], "strides": [1, 1], "padding": "same", "data_format": "channels_last", "dilation_rate": [1, 1], "groups": 1, "activation": "linear", "use_bias": true, "kernel_initializer": {"class_name": "GlorotUniform", "config": {"seed": null}}, "bias_initializer": {"class_name": "Zeros", "config": {}}, "kernel_regularizer": null, "bias_regularizer": null, "activity_regularizer": null, "kernel_constraint": null, "bias_constraint": null}, "name": "expanded_conv_6/squeeze_excite/Conv_1", "inbound_nodes": [[["expanded_conv_6/squeeze_excite/Relu", 0, 0, {}]]]}, {"class_name": "TFOpLambda", "config": {"name": "tf.__operators__.add_175", "trainable": false, "dtype": "float32", "function": "__operators__.add"}, "name": "tf.__operators__.add_175", "inbound_nodes": [["expanded_conv_6/squeeze_excite/Conv_1", 0, 0, {"y": 3.0, "name": null}]]}, {"class_name": "ReLU", "config": {"name": "re_lu_210", "trainable": false, "dtype": "float32", "max_value": 6.0, "negative_slope": 0.0, "threshold": 0.0}, "name": "re_lu_210", "inbound_nodes": [[["tf.__operators__.add_175", 0, 0, {}]]]}, {"class_name": "TFOpLambda", "config": {"name": "tf.math.multiply_175", "trainable": false, "dtype": "float32", "function": "math.multiply"}, "name": "tf.math.multiply_175", "inbound_nodes": [["re_lu_210", 0, 0, {"y": 0.16666666666666666, "name": null}]]}, {"class_name": "Multiply", "config": {"name": "expanded_conv_6/squeeze_excite/Mul", "trainable": false, "dtype": "float32"}, "name": "expanded_conv_6/squeeze_excite/Mul", "inbound_nodes": [[["multiply_116", 0, 0, {}], ["tf.math.multiply_175", 0, 0, {}]]]}, {"class_name": "Conv2D", "config": {"name": "expanded_conv_6/project", "trainable": false, "dtype": "float32", "filters": 48, "kernel_size": [1, 1], "strides": [1, 1], "padding": "same", "data_format": "channels_last", "dilation_rate": [1, 1], "groups": 1, "activation": "linear", "use_bias": false, "kernel_initializer": {"class_name": "GlorotUniform", "config": {"seed": null}}, "bias_initializer": {"class_name": "Zeros", "config": {}}, "kernel_regularizer": null, "bias_regularizer": null, "activity_regularizer": null, "kernel_constraint": null, "bias_constraint": null}, "name": "expanded_conv_6/project", "inbound_nodes": [[["expanded_conv_6/squeeze_excite/Mul", 0, 0, {}]]]}, {"class_name": "BatchNormalization", "config": {"name": "expanded_conv_6/project/BatchNorm", "trainable": false, "dtype": "float32", "axis": [3], "momentum": 0.999, "epsilon": 0.001, "center": true, "scale": true, "beta_initializer": {"class_name": "Zeros", "config": {}}, "gamma_initializer": {"class_name": "Ones", "config": {}}, "moving_mean_initializer": {"class_name": "Zeros", "config": {}}, "moving_variance_initializer": {"class_name": "Ones", "config": {}}, "beta_regularizer": null, "gamma_regularizer": null, "beta_constraint": null, "gamma_constraint": null}, "name": "expanded_conv_6/project/BatchNorm", "inbound_nodes": [[["expanded_conv_6/project", 0, 0, {}]]]}, {"class_name": "Conv2D", "config": {"name": "expanded_conv_7/expand", "trainable": false, "dtype": "float32", "filters": 144, "kernel_size": [1, 1], "strides": [1, 1], "padding": "same", "data_format": "channels_last", "dilation_rate": [1, 1], "groups": 1, "activation": "linear", "use_bias": false, "kernel_initializer": {"class_name": "GlorotUniform", "config": {"seed": null}}, "bias_initializer": {"class_name": "Zeros", "config": {}}, "kernel_regularizer": null, "bias_regularizer": null, "activity_regularizer": null, "kernel_constraint": null, "bias_constraint": null}, "name": "expanded_conv_7/expand", "inbound_nodes": [[["expanded_conv_6/project/BatchNorm", 0, 0, {}]]]}, {"class_name": "BatchNormalization", "config": {"name": "expanded_conv_7/expand/BatchNorm", "trainable": false, "dtype": "float32", "axis": [3], "momentum": 0.999, "epsilon": 0.001, "center": true, "scale": true, "beta_initializer": {"class_name": "Zeros", "config": {}}, "gamma_initializer": {"class_name": "Ones", "config": {}}, "moving_mean_initializer": {"class_name": "Zeros", "config": {}}, "moving_variance_initializer": {"class_name": "Ones", "config": {}}, "beta_regularizer": null, "gamma_regularizer": null, "beta_constraint": null, "gamma_constraint": null}, "name": "expanded_conv_7/expand/BatchNorm", "inbound_nodes": [[["expanded_conv_7/expand", 0, 0, {}]]]}, {"class_name": "TFOpLambda", "config": {"name": "tf.__operators__.add_176", "trainable": false, "dtype": "float32", "function": "__operators__.add"}, "name": "tf.__operators__.add_176", "inbound_nodes": [["expanded_conv_7/expand/BatchNorm", 0, 0, {"y": 3.0, "name": null}]]}, {"class_name": "ReLU", "config": {"name": "re_lu_211", "trainable": false, "dtype": "float32", "max_value": 6.0, "negative_slope": 0.0, "threshold": 0.0}, "name": "re_lu_211", "inbound_nodes": [[["tf.__operators__.add_176", 0, 0, {}]]]}, {"class_name": "TFOpLambda", "config": {"name": "tf.math.multiply_176", "trainable": false, "dtype": "float32", "function": "math.multiply"}, "name": "tf.math.multiply_176", "inbound_nodes": [["re_lu_211", 0, 0, {"y": 0.16666666666666666, "name": null}]]}, {"class_name": "Multiply", "config": {"name": "multiply_117", "trainable": false, "dtype": "float32"}, "name": "multiply_117", "inbound_nodes": [[["expanded_conv_7/expand/BatchNorm", 0, 0, {}], ["tf.math.multiply_176", 0, 0, {}]]]}, {"class_name": "DepthwiseConv2D", "config": {"name": "expanded_conv_7/depthwise", "trainable": false, "dtype": "float32", "kernel_size": [5, 5], "strides": [1, 1], "padding": "same", "data_format": "channels_last", "dilation_rate": [1, 1], "groups": 1, "activation": "linear", "use_bias": false, "bias_initializer": {"class_name": "Zeros", "config": {}}, "bias_regularizer": null, "activity_regularizer": null, "bias_constraint": null, "depth_multiplier": 1, "depthwise_initializer": {"class_name": "GlorotUniform", "config": {"seed": null}}, "depthwise_regularizer": null, "depthwise_constraint": null}, "name": "expanded_conv_7/depthwise", "inbound_nodes": [[["multiply_117", 0, 0, {}]]]}, {"class_name": "BatchNormalization", "config": {"name": "expanded_conv_7/depthwise/BatchNorm", "trainable": false, "dtype": "float32", "axis": [3], "momentum": 0.999, "epsilon": 0.001, "center": true, "scale": true, "beta_initializer": {"class_name": "Zeros", "config": {}}, "gamma_initializer": {"class_name": "Ones", "config": {}}, "moving_mean_initializer": {"class_name": "Zeros", "config": {}}, "moving_variance_initializer": {"class_name": "Ones", "config": {}}, "beta_regularizer": null, "gamma_regularizer": null, "beta_constraint": null, "gamma_constraint": null}, "name": "expanded_conv_7/depthwise/BatchNorm", "inbound_nodes": [[["expanded_conv_7/depthwise", 0, 0, {}]]]}, {"class_name": "TFOpLambda", "config": {"name": "tf.__operators__.add_177", "trainable": false, "dtype": "float32", "function": "__operators__.add"}, "name": "tf.__operators__.add_177", "inbound_nodes": [["expanded_conv_7/depthwise/BatchNorm", 0, 0, {"y": 3.0, "name": null}]]}, {"class_name": "ReLU", "config": {"name": "re_lu_212", "trainable": false, "dtype": "float32", "max_value": 6.0, "negative_slope": 0.0, "threshold": 0.0}, "name": "re_lu_212", "inbound_nodes": [[["tf.__operators__.add_177", 0, 0, {}]]]}, {"class_name": "TFOpLambda", "config": {"name": "tf.math.multiply_177", "trainable": false, "dtype": "float32", "function": "math.multiply"}, "name": "tf.math.multiply_177", "inbound_nodes": [["re_lu_212", 0, 0, {"y": 0.16666666666666666, "name": null}]]}, {"class_name": "Multiply", "config": {"name": "multiply_118", "trainable": false, "dtype": "float32"}, "name": "multiply_118", "inbound_nodes": [[["expanded_conv_7/depthwise/BatchNorm", 0, 0, {}], ["tf.math.multiply_177", 0, 0, {}]]]}, {"class_name": "GlobalAveragePooling2D", "config": {"name": "expanded_conv_7/squeeze_excite/AvgPool", "trainable": false, "dtype": "float32", "data_format": "channels_last", "keepdims": true}, "name": "expanded_conv_7/squeeze_excite/AvgPool", "inbound_nodes": [[["multiply_118", 0, 0, {}]]]}, {"class_name": "Conv2D", "config": {"name": "expanded_conv_7/squeeze_excite/Conv", "trainable": false, "dtype": "float32", "filters": 40, "kernel_size": [1, 1], "strides": [1, 1], "padding": "same", "data_format": "channels_last", "dilation_rate": [1, 1], "groups": 1, "activation": "linear", "use_bias": true, "kernel_initializer": {"class_name": "GlorotUniform", "config": {"seed": null}}, "bias_initializer": {"class_name": "Zeros", "config": {}}, "kernel_regularizer": null, "bias_regularizer": null, "activity_regularizer": null, "kernel_constraint": null, "bias_constraint": null}, "name": "expanded_conv_7/squeeze_excite/Conv", "inbound_nodes": [[["expanded_conv_7/squeeze_excite/AvgPool", 0, 0, {}]]]}, {"class_name": "ReLU", "config": {"name": "expanded_conv_7/squeeze_excite/Relu", "trainable": false, "dtype": "float32", "max_value": null, "negative_slope": 0.0, "threshold": 0.0}, "name": "expanded_conv_7/squeeze_excite/Relu", "inbound_nodes": [[["expanded_conv_7/squeeze_excite/Conv", 0, 0, {}]]]}, {"class_name": "Conv2D", "config": {"name": "expanded_conv_7/squeeze_excite/Conv_1", "trainable": false, "dtype": "float32", "filters": 144, "kernel_size": [1, 1], "strides": [1, 1], "padding": "same", "data_format": "channels_last", "dilation_rate": [1, 1], "groups": 1, "activation": "linear", "use_bias": true, "kernel_initializer": {"class_name": "GlorotUniform", "config": {"seed": null}}, "bias_initializer": {"class_name": "Zeros", "config": {}}, "kernel_regularizer": null, "bias_regularizer": null, "activity_regularizer": null, "kernel_constraint": null, "bias_constraint": null}, "name": "expanded_conv_7/squeeze_excite/Conv_1", "inbound_nodes": [[["expanded_conv_7/squeeze_excite/Relu", 0, 0, {}]]]}, {"class_name": "TFOpLambda", "config": {"name": "tf.__operators__.add_178", "trainable": false, "dtype": "float32", "function": "__operators__.add"}, "name": "tf.__operators__.add_178", "inbound_nodes": [["expanded_conv_7/squeeze_excite/Conv_1", 0, 0, {"y": 3.0, "name": null}]]}, {"class_name": "ReLU", "config": {"name": "re_lu_213", "trainable": false, "dtype": "float32", "max_value": 6.0, "negative_slope": 0.0, "threshold": 0.0}, "name": "re_lu_213", "inbound_nodes": [[["tf.__operators__.add_178", 0, 0, {}]]]}, {"class_name": "TFOpLambda", "config": {"name": "tf.math.multiply_178", "trainable": false, "dtype": "float32", "function": "math.multiply"}, "name": "tf.math.multiply_178", "inbound_nodes": [["re_lu_213", 0, 0, {"y": 0.16666666666666666, "name": null}]]}, {"class_name": "Multiply", "config": {"name": "expanded_conv_7/squeeze_excite/Mul", "trainable": false, "dtype": "float32"}, "name": "expanded_conv_7/squeeze_excite/Mul", "inbound_nodes": [[["multiply_118", 0, 0, {}], ["tf.math.multiply_178", 0, 0, {}]]]}, {"class_name": "Conv2D", "config": {"name": "expanded_conv_7/project", "trainable": false, "dtype": "float32", "filters": 48, "kernel_size": [1, 1], "strides": [1, 1], "padding": "same", "data_format": "channels_last", "dilation_rate": [1, 1], "groups": 1, "activation": "linear", "use_bias": false, "kernel_initializer": {"class_name": "GlorotUniform", "config": {"seed": null}}, "bias_initializer": {"class_name": "Zeros", "config": {}}, "kernel_regularizer": null, "bias_regularizer": null, "activity_regularizer": null, "kernel_constraint": null, "bias_constraint": null}, "name": "expanded_conv_7/project", "inbound_nodes": [[["expanded_conv_7/squeeze_excite/Mul", 0, 0, {}]]]}, {"class_name": "BatchNormalization", "config": {"name": "expanded_conv_7/project/BatchNorm", "trainable": false, "dtype": "float32", "axis": [3], "momentum": 0.999, "epsilon": 0.001, "center": true, "scale": true, "beta_initializer": {"class_name": "Zeros", "config": {}}, "gamma_initializer": {"class_name": "Ones", "config": {}}, "moving_mean_initializer": {"class_name": "Zeros", "config": {}}, "moving_variance_initializer": {"class_name": "Ones", "config": {}}, "beta_regularizer": null, "gamma_regularizer": null, "beta_constraint": null, "gamma_constraint": null}, "name": "expanded_conv_7/project/BatchNorm", "inbound_nodes": [[["expanded_conv_7/project", 0, 0, {}]]]}, {"class_name": "Add", "config": {"name": "expanded_conv_7/Add", "trainable": false, "dtype": "float32"}, "name": "expanded_conv_7/Add", "inbound_nodes": [[["expanded_conv_6/project/BatchNorm", 0, 0, {}], ["expanded_conv_7/project/BatchNorm", 0, 0, {}]]]}, {"class_name": "Conv2D", "config": {"name": "expanded_conv_8/expand", "trainable": false, "dtype": "float32", "filters": 288, "kernel_size": [1, 1], "strides": [1, 1], "padding": "same", "data_format": "channels_last", "dilation_rate": [1, 1], "groups": 1, "activation": "linear", "use_bias": false, "kernel_initializer": {"class_name": "GlorotUniform", "config": {"seed": null}}, "bias_initializer": {"class_name": "Zeros", "config": {}}, "kernel_regularizer": null, "bias_regularizer": null, "activity_regularizer": null, "kernel_constraint": null, "bias_constraint": null}, "name": "expanded_conv_8/expand", "inbound_nodes": [[["expanded_conv_7/Add", 0, 0, {}]]]}, {"class_name": "BatchNormalization", "config": {"name": "expanded_conv_8/expand/BatchNorm", "trainable": false, "dtype": "float32", "axis": [3], "momentum": 0.999, "epsilon": 0.001, "center": true, "scale": true, "beta_initializer": {"class_name": "Zeros", "config": {}}, "gamma_initializer": {"class_name": "Ones", "config": {}}, "moving_mean_initializer": {"class_name": "Zeros", "config": {}}, "moving_variance_initializer": {"class_name": "Ones", "config": {}}, "beta_regularizer": null, "gamma_regularizer": null, "beta_constraint": null, "gamma_constraint": null}, "name": "expanded_conv_8/expand/BatchNorm", "inbound_nodes": [[["expanded_conv_8/expand", 0, 0, {}]]]}, {"class_name": "TFOpLambda", "config": {"name": "tf.__operators__.add_179", "trainable": false, "dtype": "float32", "function": "__operators__.add"}, "name": "tf.__operators__.add_179", "inbound_nodes": [["expanded_conv_8/expand/BatchNorm", 0, 0, {"y": 3.0, "name": null}]]}, {"class_name": "ReLU", "config": {"name": "re_lu_214", "trainable": false, "dtype": "float32", "max_value": 6.0, "negative_slope": 0.0, "threshold": 0.0}, "name": "re_lu_214", "inbound_nodes": [[["tf.__operators__.add_179", 0, 0, {}]]]}, {"class_name": "TFOpLambda", "config": {"name": "tf.math.multiply_179", "trainable": false, "dtype": "float32", "function": "math.multiply"}, "name": "tf.math.multiply_179", "inbound_nodes": [["re_lu_214", 0, 0, {"y": 0.16666666666666666, "name": null}]]}, {"class_name": "Multiply", "config": {"name": "multiply_119", "trainable": false, "dtype": "float32"}, "name": "multiply_119", "inbound_nodes": [[["expanded_conv_8/expand/BatchNorm", 0, 0, {}], ["tf.math.multiply_179", 0, 0, {}]]]}, {"class_name": "ZeroPadding2D", "config": {"name": "expanded_conv_8/depthwise/pad", "trainable": false, "dtype": "float32", "padding": [[1, 2], [1, 2]], "data_format": "channels_last"}, "name": "expanded_conv_8/depthwise/pad", "inbound_nodes": [[["multiply_119", 0, 0, {}]]]}, {"class_name": "DepthwiseConv2D", "config": {"name": "expanded_conv_8/depthwise", "trainable": false, "dtype": "float32", "kernel_size": [5, 5], "strides": [2, 2], "padding": "valid", "data_format": "channels_last", "dilation_rate": [1, 1], "groups": 1, "activation": "linear", "use_bias": false, "bias_initializer": {"class_name": "Zeros", "config": {}}, "bias_regularizer": null, "activity_regularizer": null, "bias_constraint": null, "depth_multiplier": 1, "depthwise_initializer": {"class_name": "GlorotUniform", "config": {"seed": null}}, "depthwise_regularizer": null, "depthwise_constraint": null}, "name": "expanded_conv_8/depthwise", "inbound_nodes": [[["expanded_conv_8/depthwise/pad", 0, 0, {}]]]}, {"class_name": "BatchNormalization", "config": {"name": "expanded_conv_8/depthwise/BatchNorm", "trainable": false, "dtype": "float32", "axis": [3], "momentum": 0.999, "epsilon": 0.001, "center": true, "scale": true, "beta_initializer": {"class_name": "Zeros", "config": {}}, "gamma_initializer": {"class_name": "Ones", "config": {}}, "moving_mean_initializer": {"class_name": "Zeros", "config": {}}, "moving_variance_initializer": {"class_name": "Ones", "config": {}}, "beta_regularizer": null, "gamma_regularizer": null, "beta_constraint": null, "gamma_constraint": null}, "name": "expanded_conv_8/depthwise/BatchNorm", "inbound_nodes": [[["expanded_conv_8/depthwise", 0, 0, {}]]]}, {"class_name": "TFOpLambda", "config": {"name": "tf.__operators__.add_180", "trainable": false, "dtype": "float32", "function": "__operators__.add"}, "name": "tf.__operators__.add_180", "inbound_nodes": [["expanded_conv_8/depthwise/BatchNorm", 0, 0, {"y": 3.0, "name": null}]]}, {"class_name": "ReLU", "config": {"name": "re_lu_215", "trainable": false, "dtype": "float32", "max_value": 6.0, "negative_slope": 0.0, "threshold": 0.0}, "name": "re_lu_215", "inbound_nodes": [[["tf.__operators__.add_180", 0, 0, {}]]]}, {"class_name": "TFOpLambda", "config": {"name": "tf.math.multiply_180", "trainable": false, "dtype": "float32", "function": "math.multiply"}, "name": "tf.math.multiply_180", "inbound_nodes": [["re_lu_215", 0, 0, {"y": 0.16666666666666666, "name": null}]]}, {"class_name": "Multiply", "config": {"name": "multiply_120", "trainable": false, "dtype": "float32"}, "name": "multiply_120", "inbound_nodes": [[["expanded_conv_8/depthwise/BatchNorm", 0, 0, {}], ["tf.math.multiply_180", 0, 0, {}]]]}, {"class_name": "GlobalAveragePooling2D", "config": {"name": "expanded_conv_8/squeeze_excite/AvgPool", "trainable": false, "dtype": "float32", "data_format": "channels_last", "keepdims": true}, "name": "expanded_conv_8/squeeze_excite/AvgPool", "inbound_nodes": [[["multiply_120", 0, 0, {}]]]}, {"class_name": "Conv2D", "config": {"name": "expanded_conv_8/squeeze_excite/Conv", "trainable": false, "dtype": "float32", "filters": 72, "kernel_size": [1, 1], "strides": [1, 1], "padding": "same", "data_format": "channels_last", "dilation_rate": [1, 1], "groups": 1, "activation": "linear", "use_bias": true, "kernel_initializer": {"class_name": "GlorotUniform", "config": {"seed": null}}, "bias_initializer": {"class_name": "Zeros", "config": {}}, "kernel_regularizer": null, "bias_regularizer": null, "activity_regularizer": null, "kernel_constraint": null, "bias_constraint": null}, "name": "expanded_conv_8/squeeze_excite/Conv", "inbound_nodes": [[["expanded_conv_8/squeeze_excite/AvgPool", 0, 0, {}]]]}, {"class_name": "ReLU", "config": {"name": "expanded_conv_8/squeeze_excite/Relu", "trainable": false, "dtype": "float32", "max_value": null, "negative_slope": 0.0, "threshold": 0.0}, "name": "expanded_conv_8/squeeze_excite/Relu", "inbound_nodes": [[["expanded_conv_8/squeeze_excite/Conv", 0, 0, {}]]]}, {"class_name": "Conv2D", "config": {"name": "expanded_conv_8/squeeze_excite/Conv_1", "trainable": false, "dtype": "float32", "filters": 288, "kernel_size": [1, 1], "strides": [1, 1], "padding": "same", "data_format": "channels_last", "dilation_rate": [1, 1], "groups": 1, "activation": "linear", "use_bias": true, "kernel_initializer": {"class_name": "GlorotUniform", "config": {"seed": null}}, "bias_initializer": {"class_name": "Zeros", "config": {}}, "kernel_regularizer": null, "bias_regularizer": null, "activity_regularizer": null, "kernel_constraint": null, "bias_constraint": null}, "name": "expanded_conv_8/squeeze_excite/Conv_1", "inbound_nodes": [[["expanded_conv_8/squeeze_excite/Relu", 0, 0, {}]]]}, {"class_name": "TFOpLambda", "config": {"name": "tf.__operators__.add_181", "trainable": false, "dtype": "float32", "function": "__operators__.add"}, "name": "tf.__operators__.add_181", "inbound_nodes": [["expanded_conv_8/squeeze_excite/Conv_1", 0, 0, {"y": 3.0, "name": null}]]}, {"class_name": "ReLU", "config": {"name": "re_lu_216", "trainable": false, "dtype": "float32", "max_value": 6.0, "negative_slope": 0.0, "threshold": 0.0}, "name": "re_lu_216", "inbound_nodes": [[["tf.__operators__.add_181", 0, 0, {}]]]}, {"class_name": "TFOpLambda", "config": {"name": "tf.math.multiply_181", "trainable": false, "dtype": "float32", "function": "math.multiply"}, "name": "tf.math.multiply_181", "inbound_nodes": [["re_lu_216", 0, 0, {"y": 0.16666666666666666, "name": null}]]}, {"class_name": "Multiply", "config": {"name": "expanded_conv_8/squeeze_excite/Mul", "trainable": false, "dtype": "float32"}, "name": "expanded_conv_8/squeeze_excite/Mul", "inbound_nodes": [[["multiply_120", 0, 0, {}], ["tf.math.multiply_181", 0, 0, {}]]]}, {"class_name": "Conv2D", "config": {"name": "expanded_conv_8/project", "trainable": false, "dtype": "float32", "filters": 96, "kernel_size": [1, 1], "strides": [1, 1], "padding": "same", "data_format": "channels_last", "dilation_rate": [1, 1], "groups": 1, "activation": "linear", "use_bias": false, "kernel_initializer": {"class_name": "GlorotUniform", "config": {"seed": null}}, "bias_initializer": {"class_name": "Zeros", "config": {}}, "kernel_regularizer": null, "bias_regularizer": null, "activity_regularizer": null, "kernel_constraint": null, "bias_constraint": null}, "name": "expanded_conv_8/project", "inbound_nodes": [[["expanded_conv_8/squeeze_excite/Mul", 0, 0, {}]]]}, {"class_name": "BatchNormalization", "config": {"name": "expanded_conv_8/project/BatchNorm", "trainable": false, "dtype": "float32", "axis": [3], "momentum": 0.999, "epsilon": 0.001, "center": true, "scale": true, "beta_initializer": {"class_name": "Zeros", "config": {}}, "gamma_initializer": {"class_name": "Ones", "config": {}}, "moving_mean_initializer": {"class_name": "Zeros", "config": {}}, "moving_variance_initializer": {"class_name": "Ones", "config": {}}, "beta_regularizer": null, "gamma_regularizer": null, "beta_constraint": null, "gamma_constraint": null}, "name": "expanded_conv_8/project/BatchNorm", "inbound_nodes": [[["expanded_conv_8/project", 0, 0, {}]]]}, {"class_name": "Conv2D", "config": {"name": "expanded_conv_9/expand", "trainable": false, "dtype": "float32", "filters": 576, "kernel_size": [1, 1], "strides": [1, 1], "padding": "same", "data_format": "channels_last", "dilation_rate": [1, 1], "groups": 1, "activation": "linear", "use_bias": false, "kernel_initializer": {"class_name": "GlorotUniform", "config": {"seed": null}}, "bias_initializer": {"class_name": "Zeros", "config": {}}, "kernel_regularizer": null, "bias_regularizer": null, "activity_regularizer": null, "kernel_constraint": null, "bias_constraint": null}, "name": "expanded_conv_9/expand", "inbound_nodes": [[["expanded_conv_8/project/BatchNorm", 0, 0, {}]]]}, {"class_name": "BatchNormalization", "config": {"name": "expanded_conv_9/expand/BatchNorm", "trainable": false, "dtype": "float32", "axis": [3], "momentum": 0.999, "epsilon": 0.001, "center": true, "scale": true, "beta_initializer": {"class_name": "Zeros", "config": {}}, "gamma_initializer": {"class_name": "Ones", "config": {}}, "moving_mean_initializer": {"class_name": "Zeros", "config": {}}, "moving_variance_initializer": {"class_name": "Ones", "config": {}}, "beta_regularizer": null, "gamma_regularizer": null, "beta_constraint": null, "gamma_constraint": null}, "name": "expanded_conv_9/expand/BatchNorm", "inbound_nodes": [[["expanded_conv_9/expand", 0, 0, {}]]]}, {"class_name": "TFOpLambda", "config": {"name": "tf.__operators__.add_182", "trainable": false, "dtype": "float32", "function": "__operators__.add"}, "name": "tf.__operators__.add_182", "inbound_nodes": [["expanded_conv_9/expand/BatchNorm", 0, 0, {"y": 3.0, "name": null}]]}, {"class_name": "ReLU", "config": {"name": "re_lu_217", "trainable": false, "dtype": "float32", "max_value": 6.0, "negative_slope": 0.0, "threshold": 0.0}, "name": "re_lu_217", "inbound_nodes": [[["tf.__operators__.add_182", 0, 0, {}]]]}, {"class_name": "TFOpLambda", "config": {"name": "tf.math.multiply_182", "trainable": false, "dtype": "float32", "function": "math.multiply"}, "name": "tf.math.multiply_182", "inbound_nodes": [["re_lu_217", 0, 0, {"y": 0.16666666666666666, "name": null}]]}, {"class_name": "Multiply", "config": {"name": "multiply_121", "trainable": false, "dtype": "float32"}, "name": "multiply_121", "inbound_nodes": [[["expanded_conv_9/expand/BatchNorm", 0, 0, {}], ["tf.math.multiply_182", 0, 0, {}]]]}, {"class_name": "DepthwiseConv2D", "config": {"name": "expanded_conv_9/depthwise", "trainable": false, "dtype": "float32", "kernel_size": [5, 5], "strides": [1, 1], "padding": "same", "data_format": "channels_last", "dilation_rate": [1, 1], "groups": 1, "activation": "linear", "use_bias": false, "bias_initializer": {"class_name": "Zeros", "config": {}}, "bias_regularizer": null, "activity_regularizer": null, "bias_constraint": null, "depth_multiplier": 1, "depthwise_initializer": {"class_name": "GlorotUniform", "config": {"seed": null}}, "depthwise_regularizer": null, "depthwise_constraint": null}, "name": "expanded_conv_9/depthwise", "inbound_nodes": [[["multiply_121", 0, 0, {}]]]}, {"class_name": "BatchNormalization", "config": {"name": "expanded_conv_9/depthwise/BatchNorm", "trainable": false, "dtype": "float32", "axis": [3], "momentum": 0.999, "epsilon": 0.001, "center": true, "scale": true, "beta_initializer": {"class_name": "Zeros", "config": {}}, "gamma_initializer": {"class_name": "Ones", "config": {}}, "moving_mean_initializer": {"class_name": "Zeros", "config": {}}, "moving_variance_initializer": {"class_name": "Ones", "config": {}}, "beta_regularizer": null, "gamma_regularizer": null, "beta_constraint": null, "gamma_constraint": null}, "name": "expanded_conv_9/depthwise/BatchNorm", "inbound_nodes": [[["expanded_conv_9/depthwise", 0, 0, {}]]]}, {"class_name": "TFOpLambda", "config": {"name": "tf.__operators__.add_183", "trainable": false, "dtype": "float32", "function": "__operators__.add"}, "name": "tf.__operators__.add_183", "inbound_nodes": [["expanded_conv_9/depthwise/BatchNorm", 0, 0, {"y": 3.0, "name": null}]]}, {"class_name": "ReLU", "config": {"name": "re_lu_218", "trainable": false, "dtype": "float32", "max_value": 6.0, "negative_slope": 0.0, "threshold": 0.0}, "name": "re_lu_218", "inbound_nodes": [[["tf.__operators__.add_183", 0, 0, {}]]]}, {"class_name": "TFOpLambda", "config": {"name": "tf.math.multiply_183", "trainable": false, "dtype": "float32", "function": "math.multiply"}, "name": "tf.math.multiply_183", "inbound_nodes": [["re_lu_218", 0, 0, {"y": 0.16666666666666666, "name": null}]]}, {"class_name": "Multiply", "config": {"name": "multiply_122", "trainable": false, "dtype": "float32"}, "name": "multiply_122", "inbound_nodes": [[["expanded_conv_9/depthwise/BatchNorm", 0, 0, {}], ["tf.math.multiply_183", 0, 0, {}]]]}, {"class_name": "GlobalAveragePooling2D", "config": {"name": "expanded_conv_9/squeeze_excite/AvgPool", "trainable": false, "dtype": "float32", "data_format": "channels_last", "keepdims": true}, "name": "expanded_conv_9/squeeze_excite/AvgPool", "inbound_nodes": [[["multiply_122", 0, 0, {}]]]}, {"class_name": "Conv2D", "config": {"name": "expanded_conv_9/squeeze_excite/Conv", "trainable": false, "dtype": "float32", "filters": 144, "kernel_size": [1, 1], "strides": [1, 1], "padding": "same", "data_format": "channels_last", "dilation_rate": [1, 1], "groups": 1, "activation": "linear", "use_bias": true, "kernel_initializer": {"class_name": "GlorotUniform", "config": {"seed": null}}, "bias_initializer": {"class_name": "Zeros", "config": {}}, "kernel_regularizer": null, "bias_regularizer": null, "activity_regularizer": null, "kernel_constraint": null, "bias_constraint": null}, "name": "expanded_conv_9/squeeze_excite/Conv", "inbound_nodes": [[["expanded_conv_9/squeeze_excite/AvgPool", 0, 0, {}]]]}, {"class_name": "ReLU", "config": {"name": "expanded_conv_9/squeeze_excite/Relu", "trainable": false, "dtype": "float32", "max_value": null, "negative_slope": 0.0, "threshold": 0.0}, "name": "expanded_conv_9/squeeze_excite/Relu", "inbound_nodes": [[["expanded_conv_9/squeeze_excite/Conv", 0, 0, {}]]]}, {"class_name": "Conv2D", "config": {"name": "expanded_conv_9/squeeze_excite/Conv_1", "trainable": false, "dtype": "float32", "filters": 576, "kernel_size": [1, 1], "strides": [1, 1], "padding": "same", "data_format": "channels_last", "dilation_rate": [1, 1], "groups": 1, "activation": "linear", "use_bias": true, "kernel_initializer": {"class_name": "GlorotUniform", "config": {"seed": null}}, "bias_initializer": {"class_name": "Zeros", "config": {}}, "kernel_regularizer": null, "bias_regularizer": null, "activity_regularizer": null, "kernel_constraint": null, "bias_constraint": null}, "name": "expanded_conv_9/squeeze_excite/Conv_1", "inbound_nodes": [[["expanded_conv_9/squeeze_excite/Relu", 0, 0, {}]]]}, {"class_name": "TFOpLambda", "config": {"name": "tf.__operators__.add_184", "trainable": false, "dtype": "float32", "function": "__operators__.add"}, "name": "tf.__operators__.add_184", "inbound_nodes": [["expanded_conv_9/squeeze_excite/Conv_1", 0, 0, {"y": 3.0, "name": null}]]}, {"class_name": "ReLU", "config": {"name": "re_lu_219", "trainable": false, "dtype": "float32", "max_value": 6.0, "negative_slope": 0.0, "threshold": 0.0}, "name": "re_lu_219", "inbound_nodes": [[["tf.__operators__.add_184", 0, 0, {}]]]}, {"class_name": "TFOpLambda", "config": {"name": "tf.math.multiply_184", "trainable": false, "dtype": "float32", "function": "math.multiply"}, "name": "tf.math.multiply_184", "inbound_nodes": [["re_lu_219", 0, 0, {"y": 0.16666666666666666, "name": null}]]}, {"class_name": "Multiply", "config": {"name": "expanded_conv_9/squeeze_excite/Mul", "trainable": false, "dtype": "float32"}, "name": "expanded_conv_9/squeeze_excite/Mul", "inbound_nodes": [[["multiply_122", 0, 0, {}], ["tf.math.multiply_184", 0, 0, {}]]]}, {"class_name": "Conv2D", "config": {"name": "expanded_conv_9/project", "trainable": false, "dtype": "float32", "filters": 96, "kernel_size": [1, 1], "strides": [1, 1], "padding": "same", "data_format": "channels_last", "dilation_rate": [1, 1], "groups": 1, "activation": "linear", "use_bias": false, "kernel_initializer": {"class_name": "GlorotUniform", "config": {"seed": null}}, "bias_initializer": {"class_name": "Zeros", "config": {}}, "kernel_regularizer": null, "bias_regularizer": null, "activity_regularizer": null, "kernel_constraint": null, "bias_constraint": null}, "name": "expanded_conv_9/project", "inbound_nodes": [[["expanded_conv_9/squeeze_excite/Mul", 0, 0, {}]]]}, {"class_name": "BatchNormalization", "config": {"name": "expanded_conv_9/project/BatchNorm", "trainable": false, "dtype": "float32", "axis": [3], "momentum": 0.999, "epsilon": 0.001, "center": true, "scale": true, "beta_initializer": {"class_name": "Zeros", "config": {}}, "gamma_initializer": {"class_name": "Ones", "config": {}}, "moving_mean_initializer": {"class_name": "Zeros", "config": {}}, "moving_variance_initializer": {"class_name": "Ones", "config": {}}, "beta_regularizer": null, "gamma_regularizer": null, "beta_constraint": null, "gamma_constraint": null}, "name": "expanded_conv_9/project/BatchNorm", "inbound_nodes": [[["expanded_conv_9/project", 0, 0, {}]]]}, {"class_name": "Add", "config": {"name": "expanded_conv_9/Add", "trainable": false, "dtype": "float32"}, "name": "expanded_conv_9/Add", "inbound_nodes": [[["expanded_conv_8/project/BatchNorm", 0, 0, {}], ["expanded_conv_9/project/BatchNorm", 0, 0, {}]]]}, {"class_name": "Conv2D", "config": {"name": "expanded_conv_10/expand", "trainable": false, "dtype": "float32", "filters": 576, "kernel_size": [1, 1], "strides": [1, 1], "padding": "same", "data_format": "channels_last", "dilation_rate": [1, 1], "groups": 1, "activation": "linear", "use_bias": false, "kernel_initializer": {"class_name": "GlorotUniform", "config": {"seed": null}}, "bias_initializer": {"class_name": "Zeros", "config": {}}, "kernel_regularizer": null, "bias_regularizer": null, "activity_regularizer": null, "kernel_constraint": null, "bias_constraint": null}, "name": "expanded_conv_10/expand", "inbound_nodes": [[["expanded_conv_9/Add", 0, 0, {}]]]}, {"class_name": "BatchNormalization", "config": {"name": "expanded_conv_10/expand/BatchNorm", "trainable": false, "dtype": "float32", "axis": [3], "momentum": 0.999, "epsilon": 0.001, "center": true, "scale": true, "beta_initializer": {"class_name": "Zeros", "config": {}}, "gamma_initializer": {"class_name": "Ones", "config": {}}, "moving_mean_initializer": {"class_name": "Zeros", "config": {}}, "moving_variance_initializer": {"class_name": "Ones", "config": {}}, "beta_regularizer": null, "gamma_regularizer": null, "beta_constraint": null, "gamma_constraint": null}, "name": "expanded_conv_10/expand/BatchNorm", "inbound_nodes": [[["expanded_conv_10/expand", 0, 0, {}]]]}, {"class_name": "TFOpLambda", "config": {"name": "tf.__operators__.add_185", "trainable": false, "dtype": "float32", "function": "__operators__.add"}, "name": "tf.__operators__.add_185", "inbound_nodes": [["expanded_conv_10/expand/BatchNorm", 0, 0, {"y": 3.0, "name": null}]]}, {"class_name": "ReLU", "config": {"name": "re_lu_220", "trainable": false, "dtype": "float32", "max_value": 6.0, "negative_slope": 0.0, "threshold": 0.0}, "name": "re_lu_220", "inbound_nodes": [[["tf.__operators__.add_185", 0, 0, {}]]]}, {"class_name": "TFOpLambda", "config": {"name": "tf.math.multiply_185", "trainable": false, "dtype": "float32", "function": "math.multiply"}, "name": "tf.math.multiply_185", "inbound_nodes": [["re_lu_220", 0, 0, {"y": 0.16666666666666666, "name": null}]]}, {"class_name": "Multiply", "config": {"name": "multiply_123", "trainable": false, "dtype": "float32"}, "name": "multiply_123", "inbound_nodes": [[["expanded_conv_10/expand/BatchNorm", 0, 0, {}], ["tf.math.multiply_185", 0, 0, {}]]]}, {"class_name": "DepthwiseConv2D", "config": {"name": "expanded_conv_10/depthwise", "trainable": false, "dtype": "float32", "kernel_size": [5, 5], "strides": [1, 1], "padding": "same", "data_format": "channels_last", "dilation_rate": [1, 1], "groups": 1, "activation": "linear", "use_bias": false, "bias_initializer": {"class_name": "Zeros", "config": {}}, "bias_regularizer": null, "activity_regularizer": null, "bias_constraint": null, "depth_multiplier": 1, "depthwise_initializer": {"class_name": "GlorotUniform", "config": {"seed": null}}, "depthwise_regularizer": null, "depthwise_constraint": null}, "name": "expanded_conv_10/depthwise", "inbound_nodes": [[["multiply_123", 0, 0, {}]]]}, {"class_name": "BatchNormalization", "config": {"name": "expanded_conv_10/depthwise/BatchNorm", "trainable": false, "dtype": "float32", "axis": [3], "momentum": 0.999, "epsilon": 0.001, "center": true, "scale": true, "beta_initializer": {"class_name": "Zeros", "config": {}}, "gamma_initializer": {"class_name": "Ones", "config": {}}, "moving_mean_initializer": {"class_name": "Zeros", "config": {}}, "moving_variance_initializer": {"class_name": "Ones", "config": {}}, "beta_regularizer": null, "gamma_regularizer": null, "beta_constraint": null, "gamma_constraint": null}, "name": "expanded_conv_10/depthwise/BatchNorm", "inbound_nodes": [[["expanded_conv_10/depthwise", 0, 0, {}]]]}, {"class_name": "TFOpLambda", "config": {"name": "tf.__operators__.add_186", "trainable": false, "dtype": "float32", "function": "__operators__.add"}, "name": "tf.__operators__.add_186", "inbound_nodes": [["expanded_conv_10/depthwise/BatchNorm", 0, 0, {"y": 3.0, "name": null}]]}, {"class_name": "ReLU", "config": {"name": "re_lu_221", "trainable": false, "dtype": "float32", "max_value": 6.0, "negative_slope": 0.0, "threshold": 0.0}, "name": "re_lu_221", "inbound_nodes": [[["tf.__operators__.add_186", 0, 0, {}]]]}, {"class_name": "TFOpLambda", "config": {"name": "tf.math.multiply_186", "trainable": false, "dtype": "float32", "function": "math.multiply"}, "name": "tf.math.multiply_186", "inbound_nodes": [["re_lu_221", 0, 0, {"y": 0.16666666666666666, "name": null}]]}, {"class_name": "Multiply", "config": {"name": "multiply_124", "trainable": false, "dtype": "float32"}, "name": "multiply_124", "inbound_nodes": [[["expanded_conv_10/depthwise/BatchNorm", 0, 0, {}], ["tf.math.multiply_186", 0, 0, {}]]]}, {"class_name": "GlobalAveragePooling2D", "config": {"name": "expanded_conv_10/squeeze_excite/AvgPool", "trainable": false, "dtype": "float32", "data_format": "channels_last", "keepdims": true}, "name": "expanded_conv_10/squeeze_excite/AvgPool", "inbound_nodes": [[["multiply_124", 0, 0, {}]]]}, {"class_name": "Conv2D", "config": {"name": "expanded_conv_10/squeeze_excite/Conv", "trainable": false, "dtype": "float32", "filters": 144, "kernel_size": [1, 1], "strides": [1, 1], "padding": "same", "data_format": "channels_last", "dilation_rate": [1, 1], "groups": 1, "activation": "linear", "use_bias": true, "kernel_initializer": {"class_name": "GlorotUniform", "config": {"seed": null}}, "bias_initializer": {"class_name": "Zeros", "config": {}}, "kernel_regularizer": null, "bias_regularizer": null, "activity_regularizer": null, "kernel_constraint": null, "bias_constraint": null}, "name": "expanded_conv_10/squeeze_excite/Conv", "inbound_nodes": [[["expanded_conv_10/squeeze_excite/AvgPool", 0, 0, {}]]]}, {"class_name": "ReLU", "config": {"name": "expanded_conv_10/squeeze_excite/Relu", "trainable": false, "dtype": "float32", "max_value": null, "negative_slope": 0.0, "threshold": 0.0}, "name": "expanded_conv_10/squeeze_excite/Relu", "inbound_nodes": [[["expanded_conv_10/squeeze_excite/Conv", 0, 0, {}]]]}, {"class_name": "Conv2D", "config": {"name": "expanded_conv_10/squeeze_excite/Conv_1", "trainable": false, "dtype": "float32", "filters": 576, "kernel_size": [1, 1], "strides": [1, 1], "padding": "same", "data_format": "channels_last", "dilation_rate": [1, 1], "groups": 1, "activation": "linear", "use_bias": true, "kernel_initializer": {"class_name": "GlorotUniform", "config": {"seed": null}}, "bias_initializer": {"class_name": "Zeros", "config": {}}, "kernel_regularizer": null, "bias_regularizer": null, "activity_regularizer": null, "kernel_constraint": null, "bias_constraint": null}, "name": "expanded_conv_10/squeeze_excite/Conv_1", "inbound_nodes": [[["expanded_conv_10/squeeze_excite/Relu", 0, 0, {}]]]}, {"class_name": "TFOpLambda", "config": {"name": "tf.__operators__.add_187", "trainable": false, "dtype": "float32", "function": "__operators__.add"}, "name": "tf.__operators__.add_187", "inbound_nodes": [["expanded_conv_10/squeeze_excite/Conv_1", 0, 0, {"y": 3.0, "name": null}]]}, {"class_name": "ReLU", "config": {"name": "re_lu_222", "trainable": false, "dtype": "float32", "max_value": 6.0, "negative_slope": 0.0, "threshold": 0.0}, "name": "re_lu_222", "inbound_nodes": [[["tf.__operators__.add_187", 0, 0, {}]]]}, {"class_name": "TFOpLambda", "config": {"name": "tf.math.multiply_187", "trainable": false, "dtype": "float32", "function": "math.multiply"}, "name": "tf.math.multiply_187", "inbound_nodes": [["re_lu_222", 0, 0, {"y": 0.16666666666666666, "name": null}]]}, {"class_name": "Multiply", "config": {"name": "expanded_conv_10/squeeze_excite/Mul", "trainable": false, "dtype": "float32"}, "name": "expanded_conv_10/squeeze_excite/Mul", "inbound_nodes": [[["multiply_124", 0, 0, {}], ["tf.math.multiply_187", 0, 0, {}]]]}, {"class_name": "Conv2D", "config": {"name": "expanded_conv_10/project", "trainable": false, "dtype": "float32", "filters": 96, "kernel_size": [1, 1], "strides": [1, 1], "padding": "same", "data_format": "channels_last", "dilation_rate": [1, 1], "groups": 1, "activation": "linear", "use_bias": false, "kernel_initializer": {"class_name": "GlorotUniform", "config": {"seed": null}}, "bias_initializer": {"class_name": "Zeros", "config": {}}, "kernel_regularizer": null, "bias_regularizer": null, "activity_regularizer": null, "kernel_constraint": null, "bias_constraint": null}, "name": "expanded_conv_10/project", "inbound_nodes": [[["expanded_conv_10/squeeze_excite/Mul", 0, 0, {}]]]}, {"class_name": "BatchNormalization", "config": {"name": "expanded_conv_10/project/BatchNorm", "trainable": false, "dtype": "float32", "axis": [3], "momentum": 0.999, "epsilon": 0.001, "center": true, "scale": true, "beta_initializer": {"class_name": "Zeros", "config": {}}, "gamma_initializer": {"class_name": "Ones", "config": {}}, "moving_mean_initializer": {"class_name": "Zeros", "config": {}}, "moving_variance_initializer": {"class_name": "Ones", "config": {}}, "beta_regularizer": null, "gamma_regularizer": null, "beta_constraint": null, "gamma_constraint": null}, "name": "expanded_conv_10/project/BatchNorm", "inbound_nodes": [[["expanded_conv_10/project", 0, 0, {}]]]}, {"class_name": "Add", "config": {"name": "expanded_conv_10/Add", "trainable": false, "dtype": "float32"}, "name": "expanded_conv_10/Add", "inbound_nodes": [[["expanded_conv_9/Add", 0, 0, {}], ["expanded_conv_10/project/BatchNorm", 0, 0, {}]]]}, {"class_name": "Conv2D", "config": {"name": "Conv_1", "trainable": false, "dtype": "float32", "filters": 576, "kernel_size": [1, 1], "strides": [1, 1], "padding": "same", "data_format": "channels_last", "dilation_rate": [1, 1], "groups": 1, "activation": "linear", "use_bias": false, "kernel_initializer": {"class_name": "GlorotUniform", "config": {"seed": null}}, "bias_initializer": {"class_name": "Zeros", "config": {}}, "kernel_regularizer": null, "bias_regularizer": null, "activity_regularizer": null, "kernel_constraint": null, "bias_constraint": null}, "name": "Conv_1", "inbound_nodes": [[["expanded_conv_10/Add", 0, 0, {}]]]}, {"class_name": "BatchNormalization", "config": {"name": "Conv_1/BatchNorm", "trainable": false, "dtype": "float32", "axis": [3], "momentum": 0.999, "epsilon": 0.001, "center": true, "scale": true, "beta_initializer": {"class_name": "Zeros", "config": {}}, "gamma_initializer": {"class_name": "Ones", "config": {}}, "moving_mean_initializer": {"class_name": "Zeros", "config": {}}, "moving_variance_initializer": {"class_name": "Ones", "config": {}}, "beta_regularizer": null, "gamma_regularizer": null, "beta_constraint": null, "gamma_constraint": null}, "name": "Conv_1/BatchNorm", "inbound_nodes": [[["Conv_1", 0, 0, {}]]]}, {"class_name": "TFOpLambda", "config": {"name": "tf.__operators__.add_188", "trainable": false, "dtype": "float32", "function": "__operators__.add"}, "name": "tf.__operators__.add_188", "inbound_nodes": [["Conv_1/BatchNorm", 0, 0, {"y": 3.0, "name": null}]]}, {"class_name": "ReLU", "config": {"name": "re_lu_223", "trainable": false, "dtype": "float32", "max_value": 6.0, "negative_slope": 0.0, "threshold": 0.0}, "name": "re_lu_223", "inbound_nodes": [[["tf.__operators__.add_188", 0, 0, {}]]]}, {"class_name": "TFOpLambda", "config": {"name": "tf.math.multiply_188", "trainable": false, "dtype": "float32", "function": "math.multiply"}, "name": "tf.math.multiply_188", "inbound_nodes": [["re_lu_223", 0, 0, {"y": 0.16666666666666666, "name": null}]]}, {"class_name": "Multiply", "config": {"name": "multiply_125", "trainable": false, "dtype": "float32"}, "name": "multiply_125", "inbound_nodes": [[["Conv_1/BatchNorm", 0, 0, {}], ["tf.math.multiply_188", 0, 0, {}]]]}, {"class_name": "GlobalAveragePooling2D", "config": {"name": "avg_pool", "trainable": false, "dtype": "float32", "data_format": "channels_last", "keepdims": false}, "name": "avg_pool", "inbound_nodes": [[["multiply_125", 0, 0, {}]]]}], "input_layers": [["input_7", 0, 0]], "output_layers": [["avg_pool", 0, 0]]}}, {"class_name": "Dense", "config": {"name": "dense_18", "trainable": true, "dtype": "float32", "units": 64, "activation": "relu", "use_bias": true, "kernel_initializer": {"class_name": "GlorotUniform", "config": {"seed": null}}, "bias_initializer": {"class_name": "Zeros", "config": {}}, "kernel_regularizer": {"class_name": "L2", "config": {"l2": 9.999999747378752e-05}}, "bias_regularizer": null, "activity_regularizer": null, "kernel_constraint": null, "bias_constraint": null}}, {"class_name": "Dropout", "config": {"name": "dropout_4", "trainable": true, "dtype": "float32", "rate": 0.5, "noise_shape": null, "seed": null}}, {"class_name": "Dense", "config": {"name": "dense_19", "trainable": true, "dtype": "float32", "units": 64, "activation": "relu", "use_bias": true, "kernel_initializer": {"class_name": "GlorotUniform", "config": {"seed": null}}, "bias_initializer": {"class_name": "Zeros", "config": {}}, "kernel_regularizer": null, "bias_regularizer": null, "activity_regularizer": null, "kernel_constraint": null, "bias_constraint": null}}, {"class_name": "Dense", "config": {"name": "dense_20", "trainable": true, "dtype": "float32", "units": 3, "activation": "softmax", "use_bias": true, "kernel_initializer": {"class_name": "GlorotUniform", "config": {"seed": null}}, "bias_initializer": {"class_name": "Zeros", "config": {}}, "kernel_regularizer": null, "bias_regularizer": null, "activity_regularizer": null, "kernel_constraint": null, "bias_constraint": null}}]}}, "training_config": {"loss": "sparse_categorical_crossentropy", "metrics": [[{"class_name": "MeanMetricWrapper", "config": {"name": "accuracy", "dtype": "float32", "fn": "sparse_categorical_accuracy"}}]], "weighted_metrics": null, "loss_weights": null, "optimizer_config": {"class_name": "Custom>Adam", "config": {"name": "Adam", "weight_decay": null, "clipnorm": null, "global_clipnorm": null, "clipvalue": null, "use_ema": false, "ema_momentum": 0.99, "ema_overwrite_frequency": null, "jit_compile": true, "is_legacy_optimizer": false, "learning_rate": 0.0010000000474974513, "beta_1": 0.9, "beta_2": 0.999, "epsilon": 1e-07, "amsgrad": false}}}}, "weightsManifest": [{"paths": ["group1-shard1of1.bin"], "weights": [{"name": "Conv/kernel", "shape": [3, 3, 3, 16], "dtype": "float32"}, {"name": "Conv/BatchNorm/gamma", "shape": [16], "dtype": "float32"}, {"name": "Conv/BatchNorm/beta", "shape": [16], "dtype": "float32"}, {"name": "Conv/BatchNorm/moving_mean", "shape": [16], "dtype": "float32"}, {"name": "Conv/BatchNorm/moving_variance", "shape": [16], "dtype": "float32"}, {"name": "expanded_conv/depthwise/depthwise_kernel", "shape": [3, 3, 16, 1], "dtype": "float32"}, {"name": "expanded_conv/depthwise/BatchNorm/gamma", "shape": [16], "dtype": "float32"}, {"name": "expanded_conv/depthwise/BatchNorm/beta", "shape": [16], "dtype": "float32"}, {"name": "expanded_conv/depthwise/BatchNorm/moving_mean", "shape": [16], "dtype": "float32"}, {"name": "expanded_conv/depthwise/BatchNorm/moving_variance", "shape": [16], "dtype": "float32"}, {"name": "expanded_conv/squeeze_excite/Conv/kernel", "shape": [1, 1, 16, 8], "dtype": "float32"}, {"name": "expanded_conv/squeeze_excite/Conv/bias", "shape": [8], "dtype": "float32"}, {"name": "expanded_conv/squeeze_excite/Conv_1/kernel", "shape": [1, 1, 8, 16], "dtype": "float32"}, {"name": "expanded_conv/squeeze_excite/Conv_1/bias", "shape": [16], "dtype": "float32"}, {"name": "expanded_conv/project/kernel", "shape": [1, 1, 16, 16], "dtype": "float32"}, {"name": "expanded_conv/project/BatchNorm/gamma", "shape": [16], "dtype": "float32"}, {"name": "expanded_conv/project/BatchNorm/beta", "shape": [16], "dtype": "float32"}, {"name": "expanded_conv/project/BatchNorm/moving_mean", "shape": [16], "dtype": "float32"}, {"name": "expanded_conv/project/BatchNorm/moving_variance", "shape": [16], "dtype": "float32"}, {"name": "expanded_conv_1/expand/kernel", "shape": [1, 1, 16, 72], "dtype": "float32"}, {"name": "expanded_conv_1/expand/BatchNorm/gamma", "shape": [72], "dtype": "float32"}, {"name": "expanded_conv_1/expand/BatchNorm/beta", "shape": [72], "dtype": "float32"}, {"name": "expanded_conv_1/expand/BatchNorm/moving_mean", "shape": [72], "dtype": "float32"}, {"name": "expanded_conv_1/expand/BatchNorm/moving_variance", "shape": [72], "dtype": "float32"}, {"name": "expanded_conv_1/depthwise/depthwise_kernel", "shape": [3, 3, 72, 1], "dtype": "float32"}, {"name": "expanded_conv_1/depthwise/BatchNorm/gamma", "shape": [72], "dtype": "float32"}, {"name": "expanded_conv_1/depthwise/BatchNorm/beta", "shape": [72], "dtype": "float32"}, {"name": "expanded_conv_1/depthwise/BatchNorm/moving_mean", "shape": [72], "dtype": "float32"}, {"name": "expanded_conv_1/depthwise/BatchNorm/moving_variance", "shape": [72], "dtype": "float32"}, {"name": "expanded_conv_1/project/kernel", "shape": [1, 1, 72, 24], "dtype": "float32"}, {"name": "expanded_conv_1/project/BatchNorm/gamma", "shape": [24], "dtype": "float32"}, {"name": "expanded_conv_1/project/BatchNorm/beta", "shape": [24], "dtype": "float32"}, {"name": "expanded_conv_1/project/BatchNorm/moving_mean", "shape": [24], "dtype": "float32"}, {"name": "expanded_conv_1/project/BatchNorm/moving_variance", "shape": [24], "dtype": "float32"}, {"name": "expanded_conv_2/expand/kernel", "shape": [1, 1, 24, 88], "dtype": "float32"}, {"name": "expanded_conv_2/expand/BatchNorm/gamma", "shape": [88], "dtype": "float32"}, {"name": "expanded_conv_2/expand/BatchNorm/beta", "shape": [88], "dtype": "float32"}, {"name": "expanded_conv_2/expand/BatchNorm/moving_mean", "shape": [88], "dtype": "float32"}, {"name": "expanded_conv_2/expand/BatchNorm/moving_variance", "shape": [88], "dtype": "float32"}, {"name": "expanded_conv_2/depthwise/depthwise_kernel", "shape": [3, 3, 88, 1], "dtype": "float32"}, {"name": "expanded_conv_2/depthwise/BatchNorm/gamma", "shape": [88], "dtype": "float32"}, {"name": "expanded_conv_2/depthwise/BatchNorm/beta", "shape": [88], "dtype": "float32"}, {"name": "expanded_conv_2/depthwise/BatchNorm/moving_mean", "shape": [88], "dtype": "float32"}, {"name": "expanded_conv_2/depthwise/BatchNorm/moving_variance", "shape": [88], "dtype": "float32"}, {"name": "expanded_conv_2/project/kernel", "shape": [1, 1, 88, 24], "dtype": "float32"}, {"name": "expanded_conv_2/project/BatchNorm/gamma", "shape": [24], "dtype": "float32"}, {"name": "expanded_conv_2/project/BatchNorm/beta", "shape": [24], "dtype": "float32"}, {"name": "expanded_conv_2/project/BatchNorm/moving_mean", "shape": [24], "dtype": "float32"}, {"name": "expanded_conv_2/project/BatchNorm/moving_variance", "shape": [24], "dtype": "float32"}, {"name": "expanded_conv_3/expand/kernel", "shape": [1, 1, 24, 96], "dtype": "float32"}, {"name": "expanded_conv_3/expand/BatchNorm/gamma", "shape": [96], "dtype": "float32"}, {"name": "expanded_conv_3/expand/BatchNorm/beta", "shape": [96], "dtype": "float32"}, {"name": "expanded_conv_3/expand/BatchNorm/moving_mean", "shape": [96], "dtype": "float32"}, {"name": "expanded_conv_3/expand/BatchNorm/moving_variance", "shape": [96], "dtype": "float32"}, {"name": "expanded_conv_3/depthwise/depthwise_kernel", "shape": [5, 5, 96, 1], "dtype": "float32"}, {"name": "expanded_conv_3/depthwise/BatchNorm/gamma", "shape": [96], "dtype": "float32"}, {"name": "expanded_conv_3/depthwise/BatchNorm/beta", "shape": [96], "dtype": "float32"}, {"name": "expanded_conv_3/depthwise/BatchNorm/moving_mean", "shape": [96], "dtype": "float32"}, {"name": "expanded_conv_3/depthwise/BatchNorm/moving_variance", "shape": [96], "dtype": "float32"}, {"name": "expanded_conv_3/squeeze_excite/Conv/kernel", "shape": [1, 1, 96, 24], "dtype": "float32"}, {"name": "expanded_conv_3/squeeze_excite/Conv/bias", "shape": [24], "dtype": "float32"}, {"name": "expanded_conv_3/squeeze_excite/Conv_1/kernel", "shape": [1, 1, 24, 96], "dtype": "float32"}, {"name": "expanded_conv_3/squeeze_excite/Conv_1/bias", "shape": [96], "dtype": "float32"}, {"name": "expanded_conv_3/project/kernel", "shape": [1, 1, 96, 40], "dtype": "float32"}, {"name": "expanded_conv_3/project/BatchNorm/gamma", "shape": [40], "dtype": "float32"}, {"name": "expanded_conv_3/project/BatchNorm/beta", "shape": [40], "dtype": "float32"}, {"name": "expanded_conv_3/project/BatchNorm/moving_mean", "shape": [40], "dtype": "float32"}, {"name": "expanded_conv_3/project/BatchNorm/moving_variance", "shape": [40], "dtype": "float32"}, {"name": "expanded_conv_4/expand/kernel", "shape": [1, 1, 40, 240], "dtype": "float32"}, {"name": "expanded_conv_4/expand/BatchNorm/gamma", "shape": [240], "dtype": "float32"}, {"name": "expanded_conv_4/expand/BatchNorm/beta", "shape": [240], "dtype": "float32"}, {"name": "expanded_conv_4/expand/BatchNorm/moving_mean", "shape": [240], "dtype": "float32"}, {"name": "expanded_conv_4/expand/BatchNorm/moving_variance", "shape": [240], "dtype": "float32"}, {"name": "expanded_conv_4/depthwise/depthwise_kernel", "shape": [5, 5, 240, 1], "dtype": "float32"}, {"name": "expanded_conv_4/depthwise/BatchNorm/gamma", "shape": [240], "dtype": "float32"}, {"name": "expanded_conv_4/depthwise/BatchNorm/beta", "shape": [240], "dtype": "float32"}, {"name": "expanded_conv_4/depthwise/BatchNorm/moving_mean", "shape": [240], "dtype": "float32"}, {"name": "expanded_conv_4/depthwise/BatchNorm/moving_variance", "shape": [240], "dtype": "float32"}, {"name": "expanded_conv_4/squeeze_excite/Conv/kernel", "shape": [1, 1, 240, 64], "dtype": "float32"}, {"name": "expanded_conv_4/squeeze_excite/Conv/bias", "shape": [64], "dtype": "float32"}, {"name": "expanded_conv_4/squeeze_excite/Conv_1/kernel", "shape": [1, 1, 64, 240], "dtype": "float32"}, {"name": "expanded_conv_4/squeeze_excite/Conv_1/bias", "shape": [240], "dtype": "float32"}, {"name": "expanded_conv_4/project/kernel", "shape": [1, 1, 240, 40], "dtype": "float32"}, {"name": "expanded_conv_4/project/BatchNorm/gamma", "shape": [40], "dtype": "float32"}, {"name": "expanded_conv_4/project/BatchNorm/beta", "shape": [40], "dtype": "float32"}, {"name": "expanded_conv_4/project/BatchNorm/moving_mean", "shape": [40], "dtype": "float32"}, {"name": "expanded_conv_4/project/BatchNorm/moving_variance", "shape": [40], "dtype": "float32"}, {"name": "expanded_conv_5/expand/kernel", "shape": [1, 1, 40, 240], "dtype": "float32"}, {"name": "expanded_conv_5/expand/BatchNorm/gamma", "shape": [240], "dtype": "float32"}, {"name": "expanded_conv_5/expand/BatchNorm/beta", "shape": [240], "dtype": "float32"}, {"name": "expanded_conv_5/expand/BatchNorm/moving_mean", "shape": [240], "dtype": "float32"}, {"name": "expanded_conv_5/expand/BatchNorm/moving_variance", "shape": [240], "dtype": "float32"}, {"name": "expanded_conv_5/depthwise/depthwise_kernel", "shape": [5, 5, 240, 1], "dtype": "float32"}, {"name": "expanded_conv_5/depthwise/BatchNorm/gamma", "shape": [240], "dtype": "float32"}, {"name": "expanded_conv_5/depthwise/BatchNorm/beta", "shape": [240], "dtype": "float32"}, {"name": "expanded_conv_5/depthwise/BatchNorm/moving_mean", "shape": [240], "dtype": "float32"}, {"name": "expanded_conv_5/depthwise/BatchNorm/moving_variance", "shape": [240], "dtype": "float32"}, {"name": "expanded_conv_5/squeeze_excite/Conv/kernel", "shape": [1, 1, 240, 64], "dtype": "float32"}, {"name": "expanded_conv_5/squeeze_excite/Conv/bias", "shape": [64], "dtype": "float32"}, {"name": "expanded_conv_5/squeeze_excite/Conv_1/kernel", "shape": [1, 1, 64, 240], "dtype": "float32"}, {"name": "expanded_conv_5/squeeze_excite/Conv_1/bias", "shape": [240], "dtype": "float32"}, {"name": "expanded_conv_5/project/kernel", "shape": [1, 1, 240, 40], "dtype": "float32"}, {"name": "expanded_conv_5/project/BatchNorm/gamma", "shape": [40], "dtype": "float32"}, {"name": "expanded_conv_5/project/BatchNorm/beta", "shape": [40], "dtype": "float32"}, {"name": "expanded_conv_5/project/BatchNorm/moving_mean", "shape": [40], "dtype": "float32"}, {"name": "expanded_conv_5/project/BatchNorm/moving_variance", "shape": [40], "dtype": "float32"}, {"name": "expanded_conv_6/expand/kernel", "shape": [1, 1, 40, 120], "dtype": "float32"}, {"name": "expanded_conv_6/expand/BatchNorm/gamma", "shape": [120], "dtype": "float32"}, {"name": "expanded_conv_6/expand/BatchNorm/beta", "shape": [120], "dtype": "float32"}, {"name": "expanded_conv_6/expand/BatchNorm/moving_mean", "shape": [120], "dtype": "float32"}, {"name": "expanded_conv_6/expand/BatchNorm/moving_variance", "shape": [120], "dtype": "float32"}, {"name": "expanded_conv_6/depthwise/depthwise_kernel", "shape": [5, 5, 120, 1], "dtype": "float32"}, {"name": "expanded_conv_6/depthwise/BatchNorm/gamma", "shape": [120], "dtype": "float32"}, {"name": "expanded_conv_6/depthwise/BatchNorm/beta", "shape": [120], "dtype": "float32"}, {"name": "expanded_conv_6/depthwise/BatchNorm/moving_mean", "shape": [120], "dtype": "float32"}, {"name": "expanded_conv_6/depthwise/BatchNorm/moving_variance", "shape": [120], "dtype": "float32"}, {"name": "expanded_conv_6/squeeze_excite/Conv/kernel", "shape": [1, 1, 120, 32], "dtype": "float32"}, {"name": "expanded_conv_6/squeeze_excite/Conv/bias", "shape": [32], "dtype": "float32"}, {"name": "expanded_conv_6/squeeze_excite/Conv_1/kernel", "shape": [1, 1, 32, 120], "dtype": "float32"}, {"name": "expanded_conv_6/squeeze_excite/Conv_1/bias", "shape": [120], "dtype": "float32"}, {"name": "expanded_conv_6/project/kernel", "shape": [1, 1, 120, 48], "dtype": "float32"}, {"name": "expanded_conv_6/project/BatchNorm/gamma", "shape": [48], "dtype": "float32"}, {"name": "expanded_conv_6/project/BatchNorm/beta", "shape": [48], "dtype": "float32"}, {"name": "expanded_conv_6/project/BatchNorm/moving_mean", "shape": [48], "dtype": "float32"}, {"name": "expanded_conv_6/project/BatchNorm/moving_variance", "shape": [48], "dtype": "float32"}, {"name": "expanded_conv_7/expand/kernel", "shape": [1, 1, 48, 144], "dtype": "float32"}, {"name": "expanded_conv_7/expand/BatchNorm/gamma", "shape": [144], "dtype": "float32"}, {"name": "expanded_conv_7/expand/BatchNorm/beta", "shape": [144], "dtype": "float32"}, {"name": "expanded_conv_7/expand/BatchNorm/moving_mean", "shape": [144], "dtype": "float32"}, {"name": "expanded_conv_7/expand/BatchNorm/moving_variance", "shape": [144], "dtype": "float32"}, {"name": "expanded_conv_7/depthwise/depthwise_kernel", "shape": [5, 5, 144, 1], "dtype": "float32"}, {"name": "expanded_conv_7/depthwise/BatchNorm/gamma", "shape": [144], "dtype": "float32"}, {"name": "expanded_conv_7/depthwise/BatchNorm/beta", "shape": [144], "dtype": "float32"}, {"name": "expanded_conv_7/depthwise/BatchNorm/moving_mean", "shape": [144], "dtype": "float32"}, {"name": "expanded_conv_7/depthwise/BatchNorm/moving_variance", "shape": [144], "dtype": "float32"}, {"name": "expanded_conv_7/squeeze_excite/Conv/kernel", "shape": [1, 1, 144, 40], "dtype": "float32"}, {"name": "expanded_conv_7/squeeze_excite/Conv/bias", "shape": [40], "dtype": "float32"}, {"name": "expanded_conv_7/squeeze_excite/Conv_1/kernel", "shape": [1, 1, 40, 144], "dtype": "float32"}, {"name": "expanded_conv_7/squeeze_excite/Conv_1/bias", "shape": [144], "dtype": "float32"}, {"name": "expanded_conv_7/project/kernel", "shape": [1, 1, 144, 48], "dtype": "float32"}, {"name": "expanded_conv_7/project/BatchNorm/gamma", "shape": [48], "dtype": "float32"}, {"name": "expanded_conv_7/project/BatchNorm/beta", "shape": [48], "dtype": "float32"}, {"name": "expanded_conv_7/project/BatchNorm/moving_mean", "shape": [48], "dtype": "float32"}, {"name": "expanded_conv_7/project/BatchNorm/moving_variance", "shape": [48], "dtype": "float32"}, {"name": "expanded_conv_8/expand/kernel", "shape": [1, 1, 48, 288], "dtype": "float32"}, {"name": "expanded_conv_8/expand/BatchNorm/gamma", "shape": [288], "dtype": "float32"}, {"name": "expanded_conv_8/expand/BatchNorm/beta", "shape": [288], "dtype": "float32"}, {"name": "expanded_conv_8/expand/BatchNorm/moving_mean", "shape": [288], "dtype": "float32"}, {"name": "expanded_conv_8/expand/BatchNorm/moving_variance", "shape": [288], "dtype": "float32"}, {"name": "expanded_conv_8/depthwise/depthwise_kernel", "shape": [5, 5, 288, 1], "dtype": "float32"}, {"name": "expanded_conv_8/depthwise/BatchNorm/gamma", "shape": [288], "dtype": "float32"}, {"name": "expanded_conv_8/depthwise/BatchNorm/beta", "shape": [288], "dtype": "float32"}, {"name": "expanded_conv_8/depthwise/BatchNorm/moving_mean", "shape": [288], "dtype": "float32"}, {"name": "expanded_conv_8/depthwise/BatchNorm/moving_variance", "shape": [288], "dtype": "float32"}, {"name": "expanded_conv_8/squeeze_excite/Conv/kernel", "shape": [1, 1, 288, 72], "dtype": "float32"}, {"name": "expanded_conv_8/squeeze_excite/Conv/bias", "shape": [72], "dtype": "float32"}, {"name": "expanded_conv_8/squeeze_excite/Conv_1/kernel", "shape": [1, 1, 72, 288], "dtype": "float32"}, {"name": "expanded_conv_8/squeeze_excite/Conv_1/bias", "shape": [288], "dtype": "float32"}, {"name": "expanded_conv_8/project/kernel", "shape": [1, 1, 288, 96], "dtype": "float32"}, {"name": "expanded_conv_8/project/BatchNorm/gamma", "shape": [96], "dtype": "float32"}, {"name": "expanded_conv_8/project/BatchNorm/beta", "shape": [96], "dtype": "float32"}, {"name": "expanded_conv_8/project/BatchNorm/moving_mean", "shape": [96], "dtype": "float32"}, {"name": "expanded_conv_8/project/BatchNorm/moving_variance", "shape": [96], "dtype": "float32"}, {"name": "expanded_conv_9/expand/kernel", "shape": [1, 1, 96, 576], "dtype": "float32"}, {"name": "expanded_conv_9/expand/BatchNorm/gamma", "shape": [576], "dtype": "float32"}, {"name": "expanded_conv_9/expand/BatchNorm/beta", "shape": [576], "dtype": "float32"}, {"name": "expanded_conv_9/expand/BatchNorm/moving_mean", "shape": [576], "dtype": "float32"}, {"name": "expanded_conv_9/expand/BatchNorm/moving_variance", "shape": [576], "dtype": "float32"}, {"name": "expanded_conv_9/depthwise/depthwise_kernel", "shape": [5, 5, 576, 1], "dtype": "float32"}, {"name": "expanded_conv_9/depthwise/BatchNorm/gamma", "shape": [576], "dtype": "float32"}, {"name": "expanded_conv_9/depthwise/BatchNorm/beta", "shape": [576], "dtype": "float32"}, {"name": "expanded_conv_9/depthwise/BatchNorm/moving_mean", "shape": [576], "dtype": "float32"}, {"name": "expanded_conv_9/depthwise/BatchNorm/moving_variance", "shape": [576], "dtype": "float32"}, {"name": "expanded_conv_9/squeeze_excite/Conv/kernel", "shape": [1, 1, 576, 144], "dtype": "float32"}, {"name": "expanded_conv_9/squeeze_excite/Conv/bias", "shape": [144], "dtype": "float32"}, {"name": "expanded_conv_9/squeeze_excite/Conv_1/kernel", "shape": [1, 1, 144, 576], "dtype": "float32"}, {"name": "expanded_conv_9/squeeze_excite/Conv_1/bias", "shape": [576], "dtype": "float32"}, {"name": "expanded_conv_9/project/kernel", "shape": [1, 1, 576, 96], "dtype": "float32"}, {"name": "expanded_conv_9/project/BatchNorm/gamma", "shape": [96], "dtype": "float32"}, {"name": "expanded_conv_9/project/BatchNorm/beta", "shape": [96], "dtype": "float32"}, {"name": "expanded_conv_9/project/BatchNorm/moving_mean", "shape": [96], "dtype": "float32"}, {"name": "expanded_conv_9/project/BatchNorm/moving_variance", "shape": [96], "dtype": "float32"}, {"name": "expanded_conv_10/expand/kernel", "shape": [1, 1, 96, 576], "dtype": "float32"}, {"name": "expanded_conv_10/expand/BatchNorm/gamma", "shape": [576], "dtype": "float32"}, {"name": "expanded_conv_10/expand/BatchNorm/beta", "shape": [576], "dtype": "float32"}, {"name": "expanded_conv_10/expand/BatchNorm/moving_mean", "shape": [576], "dtype": "float32"}, {"name": "expanded_conv_10/expand/BatchNorm/moving_variance", "shape": [576], "dtype": "float32"}, {"name": "expanded_conv_10/depthwise/depthwise_kernel", "shape": [5, 5, 576, 1], "dtype": "float32"}, {"name": "expanded_conv_10/depthwise/BatchNorm/gamma", "shape": [576], "dtype": "float32"}, {"name": "expanded_conv_10/depthwise/BatchNorm/beta", "shape": [576], "dtype": "float32"}, {"name": "expanded_conv_10/depthwise/BatchNorm/moving_mean", "shape": [576], "dtype": "float32"}, {"name": "expanded_conv_10/depthwise/BatchNorm/moving_variance", "shape": [576], "dtype": "float32"}, {"name": "expanded_conv_10/squeeze_excite/Conv/kernel", "shape": [1, 1, 576, 144], "dtype": "float32"}, {"name": "expanded_conv_10/squeeze_excite/Conv/bias", "shape": [144], "dtype": "float32"}, {"name": "expanded_conv_10/squeeze_excite/Conv_1/kernel", "shape": [1, 1, 144, 576], "dtype": "float32"}, {"name": "expanded_conv_10/squeeze_excite/Conv_1/bias", "shape": [576], "dtype": "float32"}, {"name": "expanded_conv_10/project/kernel", "shape": [1, 1, 576, 96], "dtype": "float32"}, {"name": "expanded_conv_10/project/BatchNorm/gamma", "shape": [96], "dtype": "float32"}, {"name": "expanded_conv_10/project/BatchNorm/beta", "shape": [96], "dtype": "float32"}, {"name": "expanded_conv_10/project/BatchNorm/moving_mean", "shape": [96], "dtype": "float32"}, {"name": "expanded_conv_10/project/BatchNorm/moving_variance", "shape": [96], "dtype": "float32"}, {"name": "Conv_1/kernel", "shape": [1, 1, 96, 576], "dtype": "float32"}, {"name": "Conv_1/BatchNorm/gamma", "shape": [576], "dtype": "float32"}, {"name": "Conv_1/BatchNorm/beta", "shape": [576], "dtype": "float32"}, {"name": "Conv_1/BatchNorm/moving_mean", "shape": [576], "dtype": "float32"}, {"name": "Conv_1/BatchNorm/moving_variance", "shape": [576], "dtype": "float32"}, {"name": "dense_18/kernel", "shape": [576, 64], "dtype": "float32"}, {"name": "dense_18/bias", "shape": [64], "dtype": "float32"}, {"name": "dense_19/kernel", "shape": [64, 64], "dtype": "float32"}, {"name": "dense_19/bias", "shape": [64], "dtype": "float32"}, {"name": "dense_20/kernel", "shape": [64, 3], "dtype": "float32"}, {"name": "dense_20/bias", "shape": [3], "dtype": "float32"}]}]}